Fintech/2023 fall/ML_day7/FMNIST_nn_naive.pth (torch, 882079 bytes, 8 tensors)

fc1.weight f4 [256, 784]
000000 10 92 e0 3c 70 db 6a bd 3a ab 99 bd 9a 67 80 bd
       0.027413398 -0.05733818 -0.07503362 -0.062697604
000010 dc 29 56 be 92 1e bd be 1b 3f b6 be 32 90 15 be
       -0.20914406 -0.36937386 -0.3559502 -0.14605787
000020 8c 44 3a bd 9d 8b 97 3d 11 db 1f 3f 8e 64 a8 3e
       -0.045475528 0.07399676 0.62443644 0.32889217
000030 36 69 e0 3c 45 da 2b 3c 94 e1 ca 3b 7c 17 8b bd
       0.027393918 0.010489051 0.006191442 -0.06791589
000040 dd ff 49 3e c4 f7 db 3e 40 53 50 3e 13 10 ae bd
       0.1972651 0.42962468 0.20344257 -0.0849916
000050 6b 74 79 be cd e7 e1 bd 9b 04 8c be 19 53 8c be
       -0.24360816 -0.110305406 -0.27347264 -0.27407148
000060 86 31 65 be 38 a4 27 be f0 17 35 be 18 6d 18 bd
       -0.22382173 -0.16371238 -0.17684913 -0.037213415
000070 df 4a 10 bd 01 2d fe 3c 0d 1b f3 bd 7b ea 09 be
       -0.035227653 0.031027319 -0.11870394 -0.13468353
000080 d4 5f 87 be aa 6f 74 be 6f a5 ce bd 2f fe 33 bd
       -0.264403 -0.23870721 -0.10090148 -0.04394358
000090 6c d0 51 3e b1 68 05 3f 2b 25 97 3e fe 0d d0 3c
       0.20489663 0.5211287 0.29520544 0.025397297
0000a0 e7 18 85 3c 01 da 8f 3d 7b 6f ab 3d 85 1c 9f 3d
       0.016247226 0.07024003 0.083708726 0.077691115
0000b0 3b 38 8e bb 8b cb 02 3e 55 ea d2 3e bf 70 38 3e
       -0.0043401993 0.12772958 0.41194406 0.18011759
0000c0 91 28 7a bd 7a 4e 9b be be 65 19 be 2e c0 9e be
       -0.061073843 -0.3033331 -0.14980218 -0.31005996
0000d0 83 ee 89 be 1b e2 4b be aa 12 50 bd 9c df 29 bd
       -0.26939783 -0.19910471 -0.05079905 -0.041473016
0000e0 89 fd 24 3d 04 23 a1 bd e8 be 73 be 41 84 6f be
       0.040280852 -0.07868007 -0.23803294 -0.23390295
0000f0 9b 68 07 be dc 17 bc 3c 16 a9 4c 3e e1 ca 49 3e
       -0.13223498 0.022960596 0.19986376 0.19706298
000100 65 f0 e0 3d 47 24 45 3e e2 99 97 3d ae 64 8a bd
       0.109833516 0.1925212 0.07402398 -0.067574844
000110 88 31 85 be ea 8e 96 be 3e c9 86 be 6e f8 86 be
       -0.26014352 -0.2940591 -0.2632541 -0.26361412
000120 d0 bd 10 be ed ed 28 bd cd 7b 86 3d a0 10 80 3d
       -0.14134908 -0.04124253 0.06566582 0.06253171
000130 2a 40 52 3e e6 b8 b8 3d 41 d6 03 be ae 2c 3b be
       0.20532289 0.090196416 -0.128747 -0.18278763
000140 31 8e 93 be d7 d7 b5 be 1b 0e cf bd 30 17 38 3c
       -0.2881942 -0.35516235 -0.10110112 0.011235997
000150 b4 f2 56 3c 96 b6 9f bd 69 73 74 be 19 54 6a be
       0.013119388 -0.077984974 -0.2387215 -0.22883643
000160 ff 88 b9 bc a1 65 dc 3d 82 e2 43 3e 01 40 94 3d
       -0.022648333 0.10761572 0.19129375 0.0723877
000170 0d 94 c6 3d 43 f2 a1 3d f9 26 07 3e 0e 9f 13 bd
       0.09696207 0.07907536 0.1319846 -0.03604036
000180 22 d0 1b be 5b 38 66 be 4b 9a e0 bd 61 a8 52 be
       -0.15216115 -0.22482435 -0.10966929 -0.20572044
000190 f3 bc 41 bd 04 61 da 3d e3 4e 8a 3d 84 53 ad 3c
       -0.047299337 0.106630355 0.06753328 0.021157987
0001a0 d8 eb 3d bc fd a1 3f 3e 5e fd 53 bd 7d 10 66 bd
       -0.011591874 0.18714137 -0.0517553 -0.05616807
0001b0 e8 dc 1d be e2 aa 8b be d8 75 63 be 09 f2 b9 bb
       -0.154163 -0.2727881 -0.22212923 -0.005674605
0001c0 27 2d 06 3d f6 7c c1 bd 9b a6 8f be d9 22 12 be
       0.032757904 -0.094476625 -0.28056797 -0.14271106
0001d0 71 d4 a1 3d 37 18 8c 3e e8 1c 92 3e 19 f2 85 3e
       0.07901848 0.27362224 0.2853768 0.26161268
0001e0 d2 47 1a 3e 87 cf 03 3d 0e 5f 87 bc 79 52 3d 3c
       0.1506646 0.032180335 -0.016524818 0.011555308
0001f0 0e e5 a4 bd dd 94 b5 bd 06 4e ce bd fe 51 29 bd
       -0.08051501 -0.08866284 -0.100734755 -0.04133796
000200 7c 17 86 bd 70 c9 30 3c 30 6a 82 3d 69 f3 e5 3d
       -0.06547448 0.010790214 0.0636791 0.112280674
000210 26 0d 48 3e 8b 15 85 3e 54 a9 de 3c 0a 5e b3 3d
       0.19536266 0.25992998 0.027180351 0.08758171
000220 c4 b0 11 be c2 2a 68 be c9 14 17 be 29 b4 09 3b
       -0.14227587 -0.22672561 -0.14754023 0.0021011925
000230 fb 6d fc bc 89 96 96 bd 56 01 8e be 7d 85 0c be
       -0.030814162 -0.07352931 -0.27735394 -0.13722797
000240 e8 71 a7 3e 01 e8 a9 3e f1 25 91 3e ae f4 4b 3e
       0.3270409 0.33184817 0.2834926 0.19917557
000250 eb 3a d6 3d 77 c9 b2 3d 72 62 3d 3d c7 81 90 3d
       0.104604565 0.087298326 0.046236463 0.07056003
000260 cd 45 8e 3d c4 7c 5e 3d 01 f2 a2 bc 7b 39 5d 3b
       0.06946907 0.054318205 -0.019890787 0.0033756185
000270 aa 23 cb 3d 19 2e 09 3e c2 68 25 3d 45 83 d0 bc
       0.09918912 0.13396491 0.040383108 -0.02545322
000280 bf c0 a0 3d e7 e0 81 3e d0 e2 00 3e b3 9f 84 3d
       0.078492634 0.253669 0.12586522 0.06475773
000290 b6 42 2f be 9d 6a 21 be ce 33 bc bd 1e 2c d7 3c
       -0.17115292 -0.15763326 -0.091895685 0.026266154
0002a0 03 7d 06 3e 44 06 18 be 04 b4 6b be 2a 6a 64 3d
       0.13133626 -0.1484614 -0.2301789 0.05576531
0002b0 81 1d e7 3e 68 e3 f4 3e 8f 1e 55 3e 8a 18 96 3e
       0.45139697 0.47829747 0.20812438 0.29315597
0002c0 95 ea 1b 3d 59 fc 02 3e 17 79 b4 3c 78 a5 86 3d
       0.03806551 0.12791575 0.022030396 0.065745294
0002d0 09 8f 08 3e f2 8d 93 3d 00 7e c8 bd 41 ec 5a 3c
       0.13335814 0.07204808 -0.097896576 0.013361991
0002e0 ba 81 e7 bd 46 52 18 be e7 af 39 be 1d c1 10 be
       -0.1130404 -0.14875135 -0.18133508 -0.14136167
0002f0 26 59 91 bd 94 8a c3 3d 47 e0 04 3e 4b c2 5f bc
       -0.07097082 0.09547916 0.1297618 -0.013657163
000300 53 e0 e5 bc d0 c7 2e be 13 75 e8 bd dc 0d 42 3d
       -0.028061068 -0.1706841 -0.11350455 0.0473765
000310 1d c3 e1 bd 8d 5d 80 be 56 2d 43 be 69 73 20 3e
       -0.11023543 -0.25071374 -0.19060263 0.15669025
000320 b6 5d da 3e cc 87 d7 3e 31 89 f0 3d 62 b0 30 3e
       0.4264962 0.42095792 0.11744917 0.17254785
000330 30 6e ad 3d 3d 04 a0 3d 7e b7 ae 3d 23 13 77 3d
       0.08468282 0.078133084 0.08531092 0.060320985
000340 6a 06 01 3e 47 8f 9e 3d 97 fb 92 3d fb d3 6f bd
       0.12600103 0.07742172 0.07176893 -0.05855177
000350 98 72 9f be 32 f8 bd be 55 d2 ac be b0 4f a3 be
       -0.31142116 -0.3710342 -0.3375422 -0.31896734
000360 e3 02 27 be f0 02 17 bd e9 10 df bc 8b e1 e8 bc
       -0.16309695 -0.036868036 -0.027229743 -0.02842786
000370 e8 0e c9 bd 0d 2a b5 be 30 3c 0e be 53 32 26 bc
       -0.09817296 -0.35383645 -0.13890147 -0.010143834
000380 8e ee 21 be da 63 41 be 53 02 63 be 26 b7 17 3d
       -0.15813658 -0.18885747 -0.22168855 0.0370399
000390 54 e9 84 3e 91 b5 95 3e 07 15 49 3d 61 93 e7 3d
       0.25959265 0.29240087 0.04909232 0.11307407
0003a0 84 dc 01 3c ea 3e 0b 3e 89 7d 7b 3d fb 7d d5 bd
       0.00792611 0.13598219 0.061399017 -0.104244195
0003b0 60 a5 95 bd 3e 5a 1f 3d 4b 58 00 be c1 8b 56 be
       -0.073069334 0.03890442 -0.12533681 -0.2095175
0003c0 2a 85 03 bf 44 c5 15 bf 02 cb 01 bf 58 72 cb be
       -0.5137507 -0.5850413 -0.5070039 -0.39735675
0003d0 1f c5 97 be 1b 73 6b be 93 fa 3c be 2c f3 01 be
       -0.2964258 -0.22993128 -0.18454961 -0.12690419
0003e0 2e 71 33 be f1 8b 5e be 05 dc 94 be bd 5f 14 bd
       -0.17523643 -0.21733071 -0.29074112 -0.036224116
0003f0 75 55 a3 bb d9 fd 8b be 13 80 27 bd bb 0d 60 3d
       -0.0049845525 -0.27342108 -0.040893625 0.054700594

fc1.bias f4 [256]
000000 c5 52 50 3e 68 6a d0 3d d1 0c c8 bd bf 4b e9 bc
       0.20344074 0.101765454 -0.097680695 -0.028478501
000010 27 8e c2 3d dc 60 81 bc cd 86 09 bd 03 9d 16 be
       0.0949977 -0.015793256 -0.03357582 -0.14708333
000020 36 cf 28 bd 17 32 54 3b e1 69 81 be 0e d5 df bd
       -0.041213237 0.0032378489 -0.25276092 -0.10929309
000030 65 ba be be 6a fa a5 3e ac 63 a0 bc 9f 84 f1 3e
       -0.37251583 0.32417613 -0.019578777 0.47171494
000040 94 a0 f4 3e 2c 6e 9f 3e e0 af 2e 3f 66 80 71 be
       0.4777876 0.31138742 0.68237114 -0.23584136
000050 a4 c4 c6 3d 6d 9d a8 3e ac b1 00 3e 10 83 23 bd
       0.09705475 0.32932606 0.12567776 -0.039919913
000060 a1 a5 09 3e 01 fe 9f be 15 80 be 3e af 1a 51 be
       0.13442089 -0.31248477 0.37207094 -0.20420335
000070 84 5c e9 b9 6d 56 08 bd 94 8c ec 3e 86 24 6b 3e
       -0.00044510153 -0.033285547 0.46201003 0.22963151
000080 30 23 09 bd c2 2c 39 bc 98 f0 42 bd 41 45 55 3e
       -0.033480823 -0.011302175 -0.04759273 0.208272
000090 aa 46 53 be 1f 1c 6d 3e 5f 38 56 3e b9 8d e9 be
       -0.20632425 0.23155259 0.20919941 -0.45615938
0000a0 a4 75 a7 be c0 60 84 be c3 31 1e bd 43 68 11 bc
       -0.3270694 -0.25855064 -0.038621675 -0.008874956
0000b0 3e bc ce 3c 88 6a 5d 3e e7 04 8c 3d 79 45 25 3e
       0.025236245 0.2162267 0.068368725 0.16139783
0000c0 7b 13 8b bc b3 63 b0 3e 37 2b 81 3e ce 20 b9 3c
       -0.016977062 0.34451064 0.25228283 0.02259865
0000d0 e3 c9 44 bf 17 c7 e8 be 2d f5 3b 3f 48 25 5f be
       -0.76870555 -0.45464393 0.73420984 -0.21791565
0000e0 16 49 76 3c 64 11 18 bd 8d 4b c1 3e d9 f0 d4 3e
       0.0150320735 -0.03712596 0.37752953 0.41590002
0000f0 d4 1c ae 3d 95 6f 6e 3e a0 f7 ea be 3b 68 2e 3f
       0.08501592 0.23284753 -0.45892048 0.68127793
000100 54 60 e2 be 14 32 b3 3e 68 24 45 3f 01 5e 61 bd
       -0.44214118 0.34999144 0.77008677 -0.05502129
000110 71 b2 cf be d2 3b 33 be ab 97 96 be 5d ac 1f 3e
       -0.40565827 -0.17503288 -0.29412588 0.15593095
000120 74 70 ba 3b d4 65 bc 3e 83 7a 2e bd a7 3f 68 3e
       0.005689675 0.3679644 -0.042597305 0.22680531
000130 fb ed 2f 3d 27 70 03 3e 72 9a 3f 3c b6 8c 4b be
       0.042951565 0.12835751 0.0116945375 -0.19877896
000140 f9 93 94 3e 9c 01 16 bd fa 1e 7c bb 82 ba 55 3e
       0.29019144 -0.03662263 -0.0038470612 0.20871928
000150 58 80 46 3e 96 18 83 be 0e c9 59 be 29 23 a6 be
       0.19384897 -0.25604695 -0.21268103 -0.324487
000160 a1 1e 84 bd 4b 88 6f bf 04 a6 9a 3e b8 78 e8 bb
       -0.064511545 -0.9356734 0.30204785 -0.007094469
000170 62 17 bb 3e d3 0b d7 3d 50 bf 83 bf e6 63 09 3e
       0.36541277 0.10500302 -1.0292759 0.13417014
000180 5f a2 e8 3e a9 8b 54 be 6b ed 0d 3e f0 80 25 3e
       0.4543638 -0.20756401 0.13860099 0.16162467
000190 76 2a 0d 3f 7c 21 c3 3e a2 85 b2 be c1 9b 3f 3e
       0.55142915 0.38111484 -0.3486758 0.18711759
0001a0 29 12 fc bc 38 46 ad 3d f7 04 a5 be 80 04 87 3d
       -0.030770378 0.08460659 -0.3223035 0.06592655
0001b0 c0 4c 00 bd db 8d 96 be f2 b1 06 bd 44 21 9f 3d
       -0.031323195 -0.29405102 -0.032884546 0.07770017
0001c0 15 74 f5 3e 21 4e e3 bd a6 3f 25 3f 9a 21 f2 3e
       0.47940126 -0.11098886 0.64550245 0.4729126
0001d0 5d 74 6d be f1 72 13 bf b3 91 37 3e a3 69 9a 3e
       -0.2318892 -0.5759726 0.17926674 0.3015872
0001e0 dd 9f 92 be 18 17 19 3e 06 d3 8f be f5 2e f8 3d
       -0.2863759 0.14950216 -0.28090686 0.12118331
0001f0 a8 06 13 bd 12 45 94 bc 4e 40 f1 bd 18 7f b0 3b
       -0.03589502 -0.018099342 -0.11779843 0.0053862445
000200 0a 0d d5 be 34 49 1a bd 4b 16 bd 3e 8e 50 b0 3b
       -0.4161151 -0.03766747 0.3693107 0.0053806966
000210 dc bc 05 bd 73 75 95 bd 0e 92 89 3e 71 fd 32 3e
       -0.032650813 -0.07297792 0.26869243 0.17479493
000220 0e 38 e1 bd 4c 2f 98 bd 6c 76 e7 3e d5 f9 0a bf
       -0.1099702 -0.07430896 0.45207536 -0.54287463
000230 63 85 c2 3e b8 fd 5d be 9d 35 0a be b1 d7 28 3f
       0.3799239 -0.21678817 -0.13497014 0.6595412
000240 fe ca b4 39 77 c6 1d be e7 1d 3f be 51 a2 83 bd
       0.00034483516 -0.1540774 -0.1866375 -0.06427444
000250 69 2b 73 3d 1a 50 13 bf d0 32 66 ba 2a 65 65 be
       0.05936757 -0.575441 -0.00087813754 -0.22401872
000260 49 e0 2c be 57 1a af be 35 6e ee 3d 16 08 22 bd
       -0.16882433 -0.34199783 0.11642114 -0.039558493
000270 09 97 97 be 12 47 f1 3e c8 ea 99 be 4e 22 19 bf
       -0.29607418 0.47124535 -0.30061936 -0.5981797
000280 d5 96 ff be d9 ff da bd 7a 09 5b be 13 9e 1c be
       -0.49919763 -0.1069333 -0.21390334 -0.15294676
000290 88 7f 49 3e 0f 52 23 3e 39 ae 4a 3e 95 4b 34 be
       0.19677556 0.15949272 0.19793023 -0.17606957
0002a0 eb eb 2d bf 49 cf 39 be e9 e8 c6 bc 66 bc ba 3d
       -0.6793811 -0.1814548 -0.024280982 0.091179654
0002b0 01 e9 d5 bc f8 75 eb 3d 42 8b 34 3c 74 b7 03 bd
       -0.026112081 0.1149711 0.01101953 -0.032157376
0002c0 df f9 a3 be 49 80 ce bd 05 e5 6c be 82 da d4 3c
       -0.32026574 -0.10083062 -0.23134239 0.025983099
0002d0 2f 36 5a 3e 07 f7 e4 3d a1 c0 49 ba ce 26 01 be
       0.21309732 0.11179929 -0.00076962454 -0.12612459
0002e0 a8 9a 3f 3e 5a 57 a8 3e cb fd f4 be b1 f5 a5 bd
       0.1871134 0.32879144 -0.4784988 -0.081035025
0002f0 a7 ac dc bd b0 89 57 be 0e 8e a5 3d 29 b9 d9 3e
       -0.10775118 -0.21048617 0.080837354 0.42524078
000300 71 69 cc be 5f b0 de bd 34 53 81 3c 35 78 0d 3e
       -0.39924195 -0.10873484 0.015786745 0.13815387
000310 16 a0 93 be ce 93 6d be 48 cd c7 be 0e d0 31 3e
       -0.28833073 -0.23200914 -0.39023805 0.17364523
000320 f1 de f8 3e 5c 3d 5a 3b 80 c2 d4 bb 89 ba ea bb
       0.4860759 0.0033300733 -0.006492913 -0.00716335
000330 79 ad 0d 3f 7b 00 25 bd e9 c7 8a bd a7 5f 03 3c
       0.55342823 -0.04028366 -0.06776411 0.008018411
000340 84 54 0b bf ea d9 47 bc a2 28 dc 3e d2 7f d4 bd
       -0.54425836 -0.012197951 0.4299975 -0.10375942
000350 d9 2b f2 be 19 1f d0 bb dd ee 1a 3e 25 05 b7 3d
       -0.47299078 -0.0063513634 0.15130182 0.08936528
000360 93 15 0d 3d 85 2e 07 bf 97 1a 68 3b fc ff a1 be
       0.034444403 -0.5280536 0.003541624 -0.31640613
000370 0e 8c c2 b9 38 07 c6 3d 12 81 27 3c 29 08 81 bc
       -0.00037106912 0.096693456 0.010223644 -0.015750961
000380 bf 2f fd be 1f c8 30 be ec b9 58 3e ed 58 2e be
       -0.4945049 -0.1726384 0.21164674 -0.1702611
000390 de 9b eb be 00 56 ca 3e 38 73 99 bb 85 b2 48 3e
       -0.46017355 0.39518738 -0.0046829246 0.1959935
0003a0 ae 58 fe 3d ef 95 c1 be e6 e2 f6 bd 95 9c e0 be
       0.12419258 -0.37809703 -0.12054996 -0.43869463
0003b0 59 ce 18 3e 2e be bf 3c 21 2a 83 bc bb c8 13 be
       0.14922465 0.023406114 -0.0160113 -0.14432041
0003c0 4a 4c e7 be 12 a4 b1 3c e8 9b 3c 3f f9 72 8a 3b
       -0.4517539 0.02168468 0.73675394 0.0042251316
0003d0 95 f7 5d bc 44 88 9a 3c de 03 83 3e 18 db 42 bc
       -0.013547798 0.018863805 0.25588888 -0.011893056
0003e0 c3 b2 85 be 51 17 96 be f5 ca b1 be 03 c1 78 be
       -0.26112947 -0.29314664 -0.34725156 -0.24292378
0003f0 82 75 b8 bc b3 da f2 be 07 07 82 3e de fa ee 3d
       -0.02251697 -0.4743248 0.25395986 0.11668943

fc2.weight f4 [64, 256]
000000 ef df 99 bd 58 1a fc bc 0a e3 64 bd 05 8c 54 3d
       -0.07513415 -0.03077428 -0.055880584 0.051891346
000010 ae 1a 8b bd 73 f8 20 3d 0b 14 88 bd 41 fb ac bd
       -0.06792198 0.03929944 -0.06644448 -0.084463604
000020 ed 68 14 3d 73 27 cb bc 8f 7a 76 bd a6 0b b5 3c
       0.036232878 -0.024799084 -0.060175475 0.022100281
000030 1f 5d 55 bd cf aa 05 bd 0c 40 63 bd 13 f9 a8 bd
       -0.05209076 -0.0326336 -0.055481 -0.08250632
000040 6e f0 44 bc fb 3b 14 bd c5 94 89 3b 53 6d c8 3d
       -0.0120202135 -0.036190014 0.004198643 0.09786477
000050 0d 68 7e bd c9 e9 02 be 77 40 58 bd ad eb b5 bc
       -0.06211095 -0.12784494 -0.052795853 -0.022207106
000060 16 ed 71 bb 09 15 67 3d 1c 93 d4 bc bf e4 da bc
       -0.0036914996 0.056416545 -0.025949053 -0.026720403
000070 39 26 82 bc e4 46 4f bc c7 82 e6 3c 07 c2 2a bd
       -0.015887367 -0.012651179 0.028138531 -0.041688945
000080 53 a0 72 3d 3e af 82 3d 56 f2 09 bd db 5d a5 3d
       0.05923493 0.06381081 -0.033678375 0.08074542
000090 db d8 bd bd 80 24 af bd 87 c0 1c bd f4 b7 38 3c
       -0.092698775 -0.08551884 -0.038269546 0.011274327
0000a0 f6 4d 0e be 42 bd 5e bd 08 6d 96 bd a8 4c 2b bd
       -0.13896927 -0.05437971 -0.07345015 -0.041821152
0000b0 10 8e 96 3c 44 1c 93 3d 55 29 b7 bd b2 2c 81 3d
       0.018378288 0.071831256 -0.0894343 0.06307353
0000c0 82 08 34 3d 22 15 74 bd a5 15 16 bc 2d dc d3 3c
       0.043953426 -0.059590466 -0.009160434 0.025861824
0000d0 9e f5 7a 3b 15 3b 4d bd 94 30 ca bd 38 80 47 bc
       0.0038293372 -0.050105173 -0.09872547 -0.012176566
0000e0 fa 5d 4d 3a f6 55 02 bd 1b 4c 2a bd 4c 0e e3 3c
       0.0007834133 -0.03182026 -0.041576486 0.027716778
0000f0 6e 49 21 bd 2f 10 fd 3c 4c de 14 bc f8 94 95 bd
       -0.03937667 0.030891506 -0.009086203 -0.07303804
000100 fd f8 ca bd 3e 27 81 bc 1d b4 ba bd 30 9f f0 3b
       -0.09910772 -0.015765782 -0.09116385 0.0073431954
000110 01 5f 2f bd 8b 5b 4a 3d 1e 24 81 3c be d5 cd 3c
       -0.042815212 0.04940371 0.015764292 0.025126334
000120 ac 96 dd bc bf aa ba bb 16 c5 ca bd 33 d7 68 bd
       -0.027049385 -0.005696624 -0.099008724 -0.056845855
000130 9c 8d 57 bd f3 e8 71 3c dd f3 c2 3c e1 82 78 3b
       -0.052625284 0.014765012 0.023797924 0.0037919807
000140 6d 8c b2 3b 5d 40 01 3d ba d5 31 3b ba 88 13 bd
       0.005448869 0.031555522 0.0027135448 -0.036019064
000150 39 dc 9b bc 2a 84 4d bc c6 2b 1f bd a7 3b b2 bc
       -0.019025909 -0.012543717 -0.038860105 -0.02175696
000160 bc 3e 8e bd 0f dd 21 bd 62 38 c7 bc 75 87 10 bd
       -0.069455594 -0.03951746 -0.024318878 -0.035285432
000170 b2 b0 41 3a fd 5b 2b bd 92 d1 8c bd 9f 42 bc 3d
       0.00073886954 -0.041835774 -0.0687591 0.091923945
000180 3b 68 99 3c cf cf 9d 3c 94 f3 9e bd 7d e0 ee bd
       0.018726459 0.01926413 -0.077613026 -0.116639115
000190 b2 d4 61 bd 07 2d c9 bd 32 ea 3f bd 10 8a 01 be
       -0.055134483 -0.098230414 -0.046854205 -0.12650323
0001a0 bd 3a d4 3c 5e 4b 98 bc fa f3 ca bd 29 df f7 3b
       0.025906915 -0.018590625 -0.09909816 0.0075644446
0001b0 e7 f0 31 3d f0 78 79 3d 55 5c 45 3d e2 2a 45 bd
       0.043442633 0.06090635 0.048183758 -0.0481366
0001c0 00 a0 ed bd ba 1b b7 bd 14 c5 73 bc 4b f6 f6 bd
       -0.11602783 -0.08940835 -0.01487853 -0.120586954
0001d0 76 f5 6a bc b0 46 e2 bb 41 8b 88 bd 7f 56 52 bd
       -0.014340749 -0.0069053993 -0.066671856 -0.05135202
0001e0 01 df 85 bd 54 39 0b 3d 94 55 e4 3b 43 1d d0 bd
       -0.06536675 0.03399022 0.0069682095 -0.10161831
0001f0 7c 80 d0 bd 53 3b 24 3d 76 fb 37 bd ee a8 16 bd
       -0.101807564 0.04009564 -0.044917546 -0.036782198
000200 c5 0f d5 bd 6d 97 15 be 8e 57 8a be 44 2d 47 bd
       -0.104033984 -0.14608546 -0.27019924 -0.048627153
000210 24 57 14 3d 1b b5 78 bd de b4 da bd e7 66 f8 bc
       0.036215916 -0.06071959 -0.10679029 -0.030322505
000220 86 97 89 bb 86 b7 21 bd 91 9b 19 38 80 bf 69 bc
       -0.004198971 -0.039481662 3.6622925e-05 -0.014266849
000230 f6 2b ba bd d9 92 2d bd ec 40 1b bd 11 c6 28 be
       -0.09090416 -0.042376373 -0.03790371 -0.16481806
000240 5c 61 87 3d 1f 80 ff bd 7a e9 f5 3c a0 8a 1e 3d
       0.06610367 -0.12475609 0.030018557 0.03870642
000250 51 24 bb bd d5 1a c2 bd 88 74 7a 3b a6 c5 08 bd
       -0.09137786 -0.09477774 0.003821643 -0.033391617
000260 9b 50 14 3d 1c 6d 86 bd 4b 75 c2 bc 68 fc 0e bd
       0.036209684 -0.0656378 -0.02373757 -0.034908682
000270 24 db 89 bd 06 9c 5b bd c8 ee d7 bd 19 74 07 bd
       -0.06731251 -0.053615592 -0.10543591 -0.033069704
000280 58 e4 ba bd 9f 02 e3 bb 65 e8 16 bb e5 86 68 bc
       -0.09125584 -0.0069278027 -0.0023026702 -0.014192318
000290 e9 a8 54 bd 8d 43 aa bb d2 4c 9b bd 0d be 3c bd
       -0.051918898 -0.005196041 -0.07583012 -0.046079684
0002a0 1d 44 d6 bd 1f bc a3 bd f7 e9 35 bc 48 19 63 bd
       -0.1046221 -0.079948656 -0.011103145 -0.055444032
0002b0 d4 49 0f 3d 95 20 ac bd 1d de 1b bd f9 c9 b8 bc
       0.034982517 -0.08404652 -0.03805362 -0.022557246
0002c0 20 6c 7e bd f3 65 fe bc 26 1f bf bd ff 38 69 bd
       -0.062114835 -0.031054473 -0.09332113 -0.05693912
0002d0 a2 b0 55 3b a2 ac a7 bc 9b 18 f2 bc 6f d9 ce ba
       0.0032606502 -0.02046806 -0.029552748 -0.0015781353
0002e0 82 0f af bc e2 73 8f 3d 47 b6 e7 bd e7 e3 f8 bd
       -0.0213697 0.07004525 -0.113140635 -0.12152844
0002f0 a2 14 33 bc 17 a4 fa bd c2 75 e1 bd 74 a4 38 3d
       -0.010930212 -0.12238329 -0.11008789 0.04507871
000300 22 e5 95 bd 16 89 a3 3d 57 cc 21 bc a7 85 a9 3d
       -0.07319094 0.079851314 -0.009875379 0.08277445
000310 51 93 0d 3c 4d 04 07 be 5b e3 4a bb da f1 8e bd
       0.00864108 -0.13185234 -0.0030958268 -0.06979723
000320 d7 66 37 bd b0 d4 9d bd 0e 58 64 3d 72 5b b9 bc
       -0.04477581 -0.077065825 0.055748038 -0.022626612
000330 3f 90 c7 3c 01 cf 84 bd 6e 9e 91 3c 47 cd 88 3c
       0.024360774 -0.06484795 0.01777574 0.016699446
000340 f1 d8 a3 bc 8f dc bb 3c c6 07 59 bc 73 ab 40 bd
       -0.020000907 0.022932319 -0.013246482 -0.047038507
000350 b3 81 8e bd 10 1a 2d bd 75 ec 68 bd cd d5 d0 bd
       -0.06958332 -0.042261183 -0.056866128 -0.10197029
000360 02 95 94 3b 3f 41 0d be 7c 5b 89 3c 8d 72 6e bc
       0.0045343647 -0.1379442 0.016767256 -0.014553678
000370 47 9d b7 bc 49 9f 45 bc af 63 89 bd 0d 08 83 bb
       -0.022413863 -0.012061902 -0.06708466 -0.0039987625
000380 b3 ab a1 3c c1 fd 76 bd 88 36 48 bc 3d c3 cd bd
       0.019735193 -0.060300592 -0.0122200325 -0.10047004
000390 35 a8 d0 bd 70 a5 d7 bd 92 7b 42 3d 3d fe 14 bd
       -0.10188333 -0.105296016 0.047481127 -0.036375273
0003a0 fd 39 1d bd bb 54 ea bd 6e 6e c9 bd 56 b2 08 be
       -0.03838538 -0.11441942 -0.09835516 -0.1334928
0003b0 d3 d0 8d bd 91 2d 1a bd 41 81 31 3d 4a 95 12 bd
       -0.06924596 -0.03764111 0.043336157 -0.035786904
0003c0 6a 23 e3 bd d3 a1 e9 3b 0d 87 45 be e0 55 c8 bc
       -0.11090739 0.0071298867 -0.19289799 -0.02445501
0003d0 c8 05 0b bc 00 fa ee bb da 97 78 bc cc 50 53 3d
       -0.008485265 -0.007292986 -0.015172923 0.051590726
0003e0 23 51 51 bd 74 5a b4 bd 4d c8 7f bd e7 2e b1 bc
       -0.05110277 -0.08806315 -0.06244688 -0.02162881
0003f0 c6 9e 34 bd 49 83 3b 3d 13 07 f5 bd a1 4a 5b 3c
       -0.04409673 0.0457795 -0.1196424 0.013384492

fc2.bias f4 [64]
000000 4a d2 27 bd 55 90 46 bf be a8 23 3e 5f cc 0a 3f
       -0.04097203 -0.77563983 0.15982339 0.54218096
000010 42 eb da bd b0 53 2d 3f 91 67 43 bc 4b fd 36 3f
       -0.10689403 0.6770582 -0.011926548 0.71480244
000020 93 97 ff 3e fe b1 23 bf b3 a5 e7 3e a5 1a 37 be
       0.4992033 -0.6394347 0.45243606 -0.17881258
000030 58 22 c2 bd 11 6a bf 3e 89 8f 18 bf 80 1e 45 bd
       -0.09479207 0.3738561 -0.5959402 -0.04812479
000040 90 96 10 3f 94 61 e3 3e 29 0b 93 3e 6a f4 45 3d
       0.5647974 0.44410384 0.28719452 0.048328795
000050 6d 80 d4 be 91 82 66 3f e0 19 94 be f2 b1 ac 3e
       -0.4150423 0.9004298 -0.2892599 0.33729511
000060 08 55 a7 3d 30 7a c0 be 5f 4e f0 ba bb f3 48 3e
       0.08170515 -0.37593222 -0.0018333903 0.19624226
000070 3a 0d 2e be 80 34 6d be 71 e7 a5 3e 8a 51 dc 3e
       -0.16997233 -0.23164558 0.32403138 0.4303096
000080 88 33 aa bd 51 de 1c be b1 f9 6d 3d 46 98 80 3b
       -0.0831061 -0.15319182 0.058099452 0.0039244024
000090 4a 2b 30 bd d7 78 d5 be 52 1d 7f be 92 6c c2 3e
       -0.043010034 -0.41693756 -0.24913529 0.37973458
0000a0 98 dc 3f bd 6b 6a 93 3b 9d 32 9f bd d9 b9 40 bd
       -0.046841234 0.00449877 -0.077733256 -0.047052238
0000b0 33 88 35 be 67 bc c3 3e 7d a7 3d 3e c7 67 86 3e
       -0.17727737 0.38229677 0.18520923 0.2625105
0000c0 b3 0d 84 3e 0e 84 37 be 3d 25 c6 bd ca 15 37 be
       0.25791702 -0.17921469 -0.096750714 -0.17879406
0000d0 4e 1f e2 be 7f 2a d7 be 7a c2 3f 3e 56 b4 4b 3e
       -0.4416451 -0.4202461 0.1872653 0.19893011
0000e0 c4 57 04 3f 64 6c 97 3e 65 fd 2b be 30 67 8c 3e
       0.5169642 0.29574883 -0.16795881 0.27422476
0000f0 0d 3d da bd 60 61 be 3d 31 93 2b 3e 2f c9 93 3c
       -0.10656176 0.092959166 0.16755368 0.018040268

fc3.weight f4 [32, 64]
000000 2d 51 1a 3b b0 68 36 bd 69 8f 42 be 5d 6e 55 3e
       0.002354692 -0.04453343 -0.19000019 0.20842882
000010 e1 0f 69 3e cc 82 16 3e 03 c0 b7 bd 33 89 6e bd
       0.22759964 0.14698333 -0.0897217 -0.058236312
000020 d7 90 07 3e f9 48 6e 3d 71 e9 2a bc aa b7 0f 3e
       0.13238846 0.05817506 -0.010431633 0.14034906
000030 42 13 05 3c 0c 55 7f bd a6 b8 70 3c 5e 93 14 3e
       0.008122267 -0.062336966 0.014692461 0.14509341
000040 a0 93 75 be 7b c6 91 bd 7d ca 0d 3d 3e db 6f be
       -0.23982096 -0.07117935 0.034616936 -0.23423478
000050 cb 5c e7 bd 66 ff c2 be 7e 92 09 bf 03 92 60 3d
       -0.11296996 -0.3808548 -0.53739154 0.054826748
000060 44 56 5e 3e 9d fb a2 3d be 79 be bd 9e c4 5b 3e
       0.21712595 0.07958148 -0.09300564 0.21461722
000070 ac 0c 91 3e 4d 8d 0b bd f2 59 45 be ac ba c1 3d
       0.2832998 -0.0340703 -0.19272593 0.09459433
000080 8a 49 16 3e f2 15 b7 3e 95 9d dc bd 6d ce e4 3d
       0.1467649 0.3575893 -0.10772244 0.11172185
000090 4f 58 d5 3d 24 19 90 3c 06 6b 35 be 6e 2b 70 be
       0.10417234 0.017590113 -0.17716607 -0.23454067
0000a0 e3 f0 47 3d c4 2d 8d bd 00 5e 92 bd a3 6e d6 3b
       0.04881371 -0.06893495 -0.07146835 0.0065439506
0000b0 d8 2f bb be 9a 12 2e 3e ef e6 4a 3e 00 c5 b5 be
       -0.3655994 0.16999283 0.19814657 -0.35501862
0000c0 2c 3c 1a be 58 10 16 be 59 6a dc bd e4 8d 34 bd
       -0.15062016 -0.14654672 -0.10762472 -0.04408063
0000d0 97 6e 2d be e7 29 d2 be ab ae 02 3d b8 00 84 3d
       -0.16936718 -0.41047594 0.031904858 0.064454496
0000e0 91 16 6a bd 02 c9 c3 be 87 3f 7f 3e b7 89 72 3e
       -0.057150427 -0.38239294 0.24926578 0.23685347
0000f0 66 5a e5 3c d0 7a 36 3e a7 31 43 3d 21 b1 88 3d
       0.027997207 0.17820287 0.047654774 0.0667441
000100 72 08 cd bc 74 c5 1a 3e 12 ad af bd a1 65 d8 3d
       -0.025028441 0.15114385 -0.085779324 0.10566259
000110 c6 e3 a4 bd 55 1b a3 be ea 19 7f bd c3 ee 2c 3e
       -0.08051257 -0.3185679 -0.062280573 0.16887955
000120 de 93 14 be ed 66 04 be 3e 28 65 3d 5a 70 56 3e
       -0.14509532 -0.12929888 0.05594658 0.20941296
000130 76 06 cc bd 1d c8 87 3e b9 32 9c 3d 06 32 eb bc
       -0.0996217 0.26519862 0.07626862 -0.028710376
000140 c1 d7 8f 3e a4 38 ae be 9f fe 7d 3e f9 8c 16 3e
       0.28094295 -0.34027588 0.24804161 0.14702214
000150 ae e0 60 3c 99 1e f9 3e 39 90 c5 be 7d 7f fb 3d
       0.013725443 0.48656157 -0.38586596 0.12280176
000160 09 c2 17 3d 9d 18 32 3e 55 6d a1 3d 1f 46 99 3d
       0.03705028 0.17392202 0.078821816 0.07484078
000170 a0 ab a7 bd 76 f8 8c 3e b6 b5 d8 3d 5a 53 17 3e
       -0.08187032 0.2753331 0.105815336 0.1477789
000180 a7 13 03 be 2b ba dc 3d 97 7b 4b bd 56 65 80 bd
       -0.12800466 0.10777696 -0.04967841 -0.06269328
000190 f4 ee 0d 3d 34 12 95 bd 6c bd 62 bd 63 96 82 3e
       0.03465171 -0.072788626 -0.055356428 0.2550536
0001a0 84 af 49 bd f1 4a 25 3e 1e 9a 75 bb 8e e2 1f 3e
       -0.04923965 0.16141869 -0.0037475894 0.15613768
0001b0 c6 06 98 bd 86 42 8a bd f7 fb 18 bf 08 65 3f 3e
       -0.07423167 -0.067509696 -0.5975947 0.18690884
0001c0 3c 9f 43 be ec 16 fd bd de c4 d9 ba 67 aa 58 3d
       -0.19103712 -0.123578876 -0.0016614457 0.052896883
0001d0 cf e0 7b bc ed 49 b8 3d 6d 20 1f bd 1c a6 ef be
       -0.015373423 0.08998475 -0.038849283 -0.4680642
0001e0 1d 8f b8 bd 0a ce af 3e c4 24 4f 3d e7 ac 07 3e
       -0.09011672 0.34336883 0.05057217 0.13249551
0001f0 90 79 3f bc e5 87 61 be 5e b9 a5 bd 24 3d 6a bd
       -0.011686698 -0.22024496 -0.080919966 -0.057187214
000200 e4 a1 cf bd 9a b6 51 be 12 01 7a bd 1f ca 01 3e
       -0.101383 -0.20479813 -0.061036177 0.1267476
000210 14 90 39 3e 1e 00 aa 3d 04 67 41 bd 94 86 9b 3d
       0.18121368 0.083008036 -0.047217384 0.07594028
000220 2b 4f 68 3d 24 78 99 3d 2a 6e 53 3e 5d 8e 55 3c
       0.056716125 0.07493618 0.20647493 0.01303443
000230 93 4c 6f 3b 97 88 77 3e 3f 16 95 bb b9 03 08 bd
       0.0036514148 0.24173199 -0.004549771 -0.033206675
000240 b7 90 3d bd a7 a4 96 3d ce 9c 52 3e 38 bf 35 be
       -0.04628059 0.07355624 0.20567629 -0.17748725
000250 41 29 48 3d e4 0f 16 3e 94 34 11 bf ec 98 ff 3d
       0.048867468 0.146545 -0.5672085 0.124803394
000260 f2 f7 45 3e 62 ea 99 bd 98 ea bd bd 5e 3b 6a 3e
       0.19332865 -0.07515408 -0.09273261 0.2287421
000270 38 40 fa 3d d8 f5 19 bc 88 be 1d be 4f b3 46 3e
       0.1221928 -0.009396993 -0.15404713 0.19404338
000280 68 d7 38 bd 9b d1 75 3e 1b e6 82 be 63 2f 71 3d
       -0.045127302 0.2400574 -0.25566182 0.058883082
000290 2c e2 eb 3d 18 d5 58 3e 83 b7 0c be 8b 62 5c bd
       0.11517748 0.21175039 -0.13741879 -0.053804915
0002a0 f5 57 35 3d 06 7b 1e 3e a6 aa c6 bd 9c 05 8c 3d
       0.044273335 0.15476617 -0.09700517 0.068370074
0002b0 99 11 70 3c 9e 85 b7 3e 3d 1b a8 bd e7 d9 59 3e
       0.014652633 0.3584413 -0.0820832 0.2127453
0002c0 bf 5d aa bd 27 e6 4f be 43 95 d1 bc 63 36 ed bd
       -0.08318662 -0.2030264 -0.025583869 -0.11582639
0002d0 f3 03 59 bd 69 6c 99 be d8 e9 c4 3c b6 cb 09 be
       -0.052982282 -0.29965523 0.024037287 -0.13456616
0002e0 63 c4 e1 bb 52 24 27 3e 01 bf c1 3d cb 34 ba 3d
       -0.006889866 0.16322449 0.09460259 0.09092101
0002f0 1d 1c 90 3d 52 ba a7 3d 93 cc f2 bd 12 6f 78 3e
       0.07036612 0.08189835 -0.11855426 0.2426112
000300 4b 8e 4d 3d a1 04 1e 3e ef 39 97 3e 9f f0 9f bd
       0.05018453 0.15431453 0.29536387 -0.07809567
000310 c5 08 6f 3d 0f cb ac 3c 0a 4a 1c 3d 89 a9 d2 3d
       0.058357973 0.02109292 0.038156547 0.102862425
000320 a3 e9 20 3e c3 10 80 bb f2 cb 41 3d 2c 3d dc 3d
       0.15714125 -0.003908248 0.047313638 0.10753855
000330 50 7e 37 3d 8c b2 8c be 09 b5 26 be 23 29 9b 3d
       0.044798195 -0.2747997 -0.16279997 0.075762056
000340 a8 cf 84 3e 6a 5e da 3d 99 53 af be c9 d5 02 3d
       0.2593968 0.10662539 -0.34243467 0.031942163
000350 50 53 49 3e d5 fb ce 3d 27 7e 14 3f 43 f1 a8 bd
       0.19660687 0.10106627 0.58004993 -0.08249142
000360 ac 15 f3 bd c4 8e 57 3e 57 90 b3 bd d0 48 14 3d
       -0.11869368 0.21050555 -0.08767765 0.036202252
000370 a8 ec cd be e6 1e df bd 0a 8f 20 3e 08 e5 1b bd
       -0.40219617 -0.10894565 0.15679565 -0.038060218
000380 e2 86 19 bd 5a 1a 20 be f7 a4 61 3e 01 55 e6 3c
       -0.03748215 -0.15635052 0.22035585 0.028116705
000390 ab 3e 0b 3d 2a 65 9f be bd e1 51 3d 00 38 00 3e
       0.03399531 -0.3113187 0.05124067 0.12521362
0003a0 4b 73 8c 3d 99 26 66 be f6 64 ea bd a4 81 ae 3c
       0.06857928 -0.22475661 -0.11445038 0.021302052
0003b0 d9 ec 84 be 8c b4 ed be 26 25 b5 3e 83 af 96 be
       -0.2596195 -0.4642681 0.35379905 -0.2943078
0003c0 95 95 3b 3e 34 22 72 3e 7f 5a 10 be e1 d6 e7 3c
       0.1831878 0.2364586 -0.14097022 0.028300704
0003d0 e6 d8 e8 bd 63 3a 56 3e 78 e6 62 3b 0d 83 30 3e
       -0.11369495 0.2092071 0.0034622233 0.17237492
0003e0 8d 49 8f 3e dc 2a 4b 3e aa 9a 1e bf 0d 45 1f be
       0.27985802 0.19840568 -0.6195475 -0.15553685
0003f0 80 35 72 3d 61 a0 34 3d 80 64 a4 be 02 8c 50 bd
       0.059133053 0.04409826 -0.32107925 -0.05091477

fc3.bias f4 [32]
000000 4b 7d 39 be 02 10 07 3f 23 72 a4 3e 41 93 83 3d
       -0.18114202 0.527588 0.3211833 0.06424571
000010 0c 86 2b be de a8 45 3d ec 6b 2e be 30 43 9e be
       -0.16750354 0.048256747 -0.17033356 -0.30910635
000020 0e 93 1d 3f da fd 10 3e a8 98 a2 bc 88 3e 5b 3e
       0.6155251 0.14159337 -0.019848183 0.21410573
000030 f7 23 db be b1 d3 89 3c 8e b0 ce 3e 9f 09 13 3f
       -0.42800876 0.016824575 0.40369076 0.57436556
000040 c0 e3 3b bf 18 28 31 be ba 16 8b 3e 90 c1 12 3f
       -0.73394394 -0.17300451 0.27165776 0.573266
000050 82 eb 1b 3f 23 42 4d bf 92 51 a3 bd 01 ca fb 3d
       0.6090623 -0.8017904 -0.07974543 0.122943886
000060 7f cf ba 3e 81 b8 f8 bd 9d a6 a0 be 3c 0a 23 3d
       0.36486432 -0.12144566 -0.31377116 0.039804682
000070 1c 1d a8 bd dc 3f 05 3f f2 56 9e be 16 0c 46 3f
       -0.08208677 0.52050567 -0.3092571 0.7736219

fc4.weight f4 [10, 32]
000000 bd 3d 21 be da 06 e2 be 9d 8f ad be 91 39 9d 3e
       -0.15746208 -0.44145852 -0.3389863 0.30707982
000010 3c 16 9c bb b9 bc 34 3e 90 36 1d 3e 75 75 d6 be
       -0.0047633927 0.17650117 0.15352845 -0.41886488
000020 5e 19 74 3d 6f d9 8d bd 0d 43 f3 be 80 19 35 be
       0.059594505 -0.06926238 -0.47512093 -0.17685509
000030 82 cd 49 be 8e f1 74 3e 00 b3 c9 3d b5 86 3e 3d
       -0.19707301 0.23920271 0.09848595 0.046515185
000040 e4 39 e2 be e4 e5 ae be 1c 62 b1 bd a3 a5 6e be
       -0.44184792 -0.34159768 -0.08661291 -0.23305373
000050 36 35 49 be 98 90 e7 bd 28 cd 11 bb a6 fd 10 bd
       -0.19649205 -0.11306876 -0.0022247527 -0.035398148
000060 ce 1a bb be ea c4 88 be ec a5 0c 3e 24 14 40 be
       -0.36543888 -0.26712734 0.13735169 -0.18757683
000070 0a b9 69 bd a3 ae 68 bd 26 a0 27 bf 75 9f 49 3e
       -0.057061233 -0.05680717 -0.6547874 0.19689734
000080 c9 c9 44 be af 51 3b be 4a b6 e3 be f0 cc 23 3e
       -0.192176 -0.18292879 -0.44475013 0.15996146
000090 bc cc 0c 3d 9d b8 82 bd 9f 84 79 3c 1e e9 9d be
       0.034374937 -0.063828684 0.015229373 -0.30841917
0000a0 5f e5 c1 bb f9 8a ae bd f3 dc c0 be 3a ba a7 be
       -0.0059172357 -0.08522601 -0.3766857 -0.32759267
0000b0 f2 2d 07 3f f8 cc 9e 3e 9c 29 1e 3e 37 7b 9b be
       0.5280448 0.31015754 0.1544556 -0.30367443
0000c0 73 4c 2a 3e 02 1e 06 bf 5a 33 1e be 2a 5c 4b 3d
       0.16630726 -0.5238954 -0.15449277 0.04964844
0000d0 cb c3 9d bd fa 14 1e 3e 9e 24 bc be 6a 53 e8 bd
       -0.0770336 0.1543769 -0.36746687 -0.11344035
0000e0 99 72 42 bf 1e 99 49 3e 24 7d 46 be fe d0 07 3d
       -0.7595611 0.19687316 -0.19383675 0.033158295
0000f0 89 7c b7 3c 44 71 04 be f1 f6 80 bf 21 43 fc be
       0.02239825 -0.12933832 -1.007536 -0.49269965
000100 ea fb f8 3d a0 31 57 be c0 f7 ea 3d 7f cb 1d bf
       0.12157424 -0.21015024 0.11473036 -0.61638635
000110 bb a0 a2 3d 51 1d 8a be 6a bd 11 3e 6a 74 b5 3d
       0.07940813 -0.26975492 0.14232412 0.08860095
000120 e7 12 36 be 72 80 e6 3c 4e a0 57 be 8a 38 be bc
       -0.17780648 0.02813742 -0.21057245 -0.02322032
000130 1d 90 ae be 8e 37 77 3d aa 8e 44 3d d0 5e 59 be
       -0.34094325 0.060355715 0.047987618 -0.21227574
000140 40 5b 63 be f9 af 3a be c8 b0 4d 3b 8e 9e 63 3e
       -0.22202778 -0.1823119 0.0031385887 0.22228453
000150 09 98 64 3e 41 d0 3a 3e ac 01 10 bf ce 12 14 bf
       0.22323622 0.18243505 -0.5625255 -0.57841194
000160 f0 ad 8f bf de 5a 27 3e 39 d7 e5 bc 9d 3f 99 3c
       -1.1224957 0.16343257 -0.028056728 0.018707091
000170 ab ef eb bd 0b ac 3c 3e 90 6a 2b bf cd 7d 78 3e
       -0.115203224 0.18425004 -0.66959476 0.24266739
000180 ef ef db bc c0 e5 68 3e df 34 4d 3d c1 0a 8b be
       -0.026847808 0.22743893 0.05009925 -0.27156642
000190 be 51 1a be 81 f8 2b 3d 67 3d 17 3c aa 0c e4 be
       -0.15070245 0.04198504 0.009230948 -0.44540912
0001a0 08 bf 00 bf da ab a8 bd b4 7b 0d bd 68 43 46 3d
       -0.5029149 -0.08235903 -0.0345418 0.048404127
0001b0 9c d8 bf be 38 e1 b0 be 66 9f 22 3e 97 b5 49 3e
       -0.37469947 -0.34546828 0.15881118 0.19698177
0001c0 5e 25 ff bd 91 36 89 bd 00 a6 48 3c 89 d1 c6 be
       -0.12458299 -0.06699861 0.012246609 -0.38831738
0001d0 35 2b fe 3d 1d ad 5b be 3a f8 2f be b1 90 af 3e
       0.12410585 -0.21452756 -0.17184535 0.34290078
0001e0 72 b8 56 be 09 0d 6a 3e f1 71 b9 3b b6 18 de bd
       -0.20968798 0.22856535 0.005659335 -0.10844557
0001f0 f6 11 7d bd 4b af d0 be eb 7d 0a bf 02 d5 83 3d
       -0.061784707 -0.40758738 -0.54098386 0.064371124
000200 83 bb 57 3e c0 f1 a6 bd 6a 02 d6 3d 41 86 ee bd
       0.21067624 -0.08151579 0.10449679 -0.11646701
000210 e3 9d f1 3d b8 b6 90 bd d3 a6 10 bd 2c ae d6 3d
       0.117976926 -0.07066101 -0.035315346 0.104824394
000220 b0 4b 21 be bc b0 a7 bc bd 4a 6e be 1b 75 0a bf
       -0.15751529 -0.020470016 -0.23270698 -0.5408494
000230 45 50 ac be 23 8e b9 be 84 63 a5 be b1 e3 b3 bd
       -0.3365499 -0.36241254 -0.32302487 -0.08783663
000240 61 85 6a 3e 02 fd eb 3d fe f0 a5 3d 76 e2 1a be
       0.22902443 0.11522867 0.08102606 -0.1512545
000250 da 9a 00 3e 5f 49 87 3e 73 aa 80 3d fd 73 f7 3d
       0.12559071 0.26423165 0.062825106 0.1208267
000260 a7 41 da be 29 f2 c2 bd 71 78 43 3e f6 e3 ce 3d
       -0.42628214 -0.09518845 0.19088914 0.10102074
000270 ca 49 c8 bc 91 71 96 3c d8 f7 d9 be 26 71 a0 be
       -0.024449248 0.0183647 -0.42571902 -0.31336325
000280 e3 16 57 bf e6 9a 58 3e 8c 3e 82 3e ba 72 63 be
       -0.840193 0.21152839 0.25438344 -0.22211733
000290 46 c9 1d bd 6b 8c 4f be 0f 1e 0a be 16 df 38 3e
       -0.038522027 -0.20268409 -0.13488029 0.1805385
0002a0 11 ec 25 3f 9d 55 cb be 48 a6 c6 bd ee cc 1b 3e
       0.64813334 -0.39713755 -0.096996844 0.15214893
0002b0 01 fd 98 be b5 31 a6 be 11 6b 5c 3d 83 87 15 bf
       -0.29880527 -0.32459798 0.053813044 -0.584099
0002c0 60 11 4f be e2 2d 9e 3d b0 9d 4a be ab 57 1b 3e
       -0.20221472 0.07723595 -0.19786716 0.15170161
0002d0 6d e9 39 be 17 50 aa be 78 32 1b 3e c7 a1 4f be
       -0.18155451 -0.3326423 0.15155971 -0.20276557
0002e0 f5 c7 28 3c 6f 96 a8 be c6 61 38 bf fc a7 e9 bd
       0.01030158 -0.32927272 -0.7202419 -0.114089936
0002f0 19 63 13 3e e1 72 00 bd 7e 6d 09 bc 6a ed 5d bd
       0.14393272 -0.031359557 -0.008387921 -0.054181494
000300 43 a2 60 3e fb 65 82 be 1a 3c 46 3d 11 67 30 3d
       0.21936898 -0.2546843 0.04839716 0.04306704
000310 3f ae d9 bd b6 dd d6 3c a2 e5 90 3d 2b 45 92 bd
       -0.10628938 0.026228767 0.07075049 -0.07142099
000320 da 13 fe be 74 fe 83 3d 0d 69 be 3e ca e9 16 bf
       -0.4962452 0.064450175 0.37189522 -0.58950484
000330 ec 19 d9 be 33 7b 92 3d 88 f9 59 be 4a 9a a3 3e
       -0.4240259 0.07152405 -0.21286595 0.3195365
000340 47 50 03 bf e0 73 26 3e 06 bc 02 3e e5 f3 be bc
       -0.5129437 0.1625514 0.12767038 -0.023309657
000350 4e 76 1c 3e b7 cb 7d be 24 90 ea bd dc 1f ce be
       0.15279505 -0.24784742 -0.11453274 -0.40258682
000360 f3 43 07 bf 2a f7 f9 be e9 f7 63 3e f8 5d 1e be
       -0.5283806 -0.48821384 0.22262539 -0.15465534
000370 33 30 3c 3d 6b 64 77 3d 4f b0 36 bf 79 5c 8e 3e
       0.045944404 0.0603985 -0.71362776 0.27804926
000380 96 d8 f0 be 89 82 77 3e c4 c1 1b be d0 68 8b 3e
       -0.47040242 0.24170889 -0.15210634 0.27228403
000390 35 4c 96 bd 53 6a be be a0 14 be bd fa 9d ac be
       -0.07338754 -0.37190494 -0.09281278 -0.33714277
0003a0 5a 4d b6 be f5 17 50 bd 58 b2 10 be fd c5 1c 3e
       -0.3560589 -0.050804097 -0.14130533 0.15309902
0003b0 86 20 01 bf 9a 65 1d 3e 28 18 c0 be 8a 91 ae be
       -0.5044025 0.15370789 -0.3751843 -0.34095412
0003c0 7d 8b 18 be 74 f9 1b be 7a 8f af bd f4 55 0c bf
       -0.1489696 -0.15231878 -0.08572288 -0.54818654
0003d0 b5 fa d8 3d 1c 5f 22 3d 29 f6 d2 3d 36 94 11 bf
       0.105946936 0.039641485 0.103008576 -0.56866777
0003e0 75 c4 b6 3e fc 4b 53 be b1 32 fa be 7b f0 8b bd
       0.3569676 -0.20634454 -0.488668 -0.068329774
0003f0 83 12 07 3b b7 e2 83 3e 99 e5 0d be cd 4c 41 bf
       0.00206104 0.25758907 -0.13857116 -0.75507814

fc4.bias f4 [10]
000000 30 18 c6 3c 05 78 83 be 6f 08 74 3e 6d d8 be 3e
       0.024181455 -0.25677505 0.23831342 0.37274495
000010 41 e4 19 bf b4 85 13 3f 57 39 69 3e 77 6c 31 3e
       -0.6011391 0.5762589 0.2277578 0.17326532
000020 77 6f d9 be 98 fb 54 bf
       -0.42467853 -0.831964
