Fintech/2023 fall/ML_day7/FMNIST_nn_batchnorm.pth (torch, 890143 bytes, 16 tensors)

fc1.weight f4 [256, 784]
00000000: 2e6a 1f3c b333 3d3e 5dec 30bc df99 48be
00000010: 1b33 49be 3a09 5abe ccae 8cbe 06a5 8bbe
00000020: e91b 8bbd a975 6a3e 9297 d33e 16a9 663e
00000030: 5cf9 453d d7a5 0d3c 62f2 9a3d 1f85 4b3d
00000040: 26a3 ba3d b714 b93d 2edc ad3e 77b8 133d
00000050: 61a8 0fbf ae6a 87be d18f 733c 8d14 49bd
00000060: 8864 663b 2351 adbd bf5e 5f3d f55e 393e
00000070: 88c5 37bd ca44 ab3d ce85 303d 591b 32be
00000080: 68f5 53be 8b16 8abe 7bdb 63be 9948 8cbe
00000090: 29f5 d1be 644c 5dbe c3f1 073e 26dc 9a3d
000000a0: 9352 62bc febd 16be 1ceb 40be 9026 35bd
000000b0: 0716 ccbc e69f 8cbd 5ef2 b0bd 0502 43be
000000c0: e7d1 d5be 392f 5fbe c8f7 87be 12b3 85be
000000d0: 7c36 99be 3f2c 66bc b656 1d3e 2ded 44bc
000000e0: 97dd 423d 5d55 1c3e 29ac bc3d 7230 e7bd
000000f0: bd6f 60be 29d0 12be 06fe 1fbe d235 1abe
00000100: 15b5 e2bc 5e52 973d bb21 c13d a092 6f3b
00000110: e040 1b3d bd4e 293e ee89 063e 734d ad3d
00000120: 5c95 86bd c6e8 63bd 59d3 be3d c657 303e
00000130: 0365 17be ebeb 34be 7cfa 3abe 07c1 91bd
00000140: bdd0 3bbe 4da8 60bd 3e45 8d3a 6520 b2bc
00000150: 9612 643d f992 743d b1d3 353e 1538 34bd
00000160: 0c05 77be 3898 7fbe a6a1 233e ce98 493e
00000170: 79f2 01bd 773e 393d 6e4a 0a3d 64fa 79bd
00000180: 7435 07be e301 a33d a6fe 243e e099 c5bb
00000190: 88c7 10be 8f0a 0cbd 1c07 c83d 18b7 473e
000001a0: 7d54 6d3e e929 183e 46f5 13bd da71 233c
000001b0: 489e 06be 7f67 efbd 03e1 423d f2e2 703e
000001c0: 64c9 f9bd 952d f13b 5cdf ea3d bf64 79bd
000001d0: 6556 2abe 7695 f0bb fa9d 163e 87e7 02be
000001e0: e9ba 5bbe e452 c83d d9f8 9bbd 655c 84bc
000001f0: b488 8b3b 6c3a 2b3e 11fd 0d3e 3c6a 3bbe
00000200: f2ee 353b d74a 04be e88a 5bbc b7d1 ad3d
00000210: 3acc e9bd 9348 f0bb 040d 313e 6453 2fbc
00000220: b404 55be 956d 34be 8109 7c3d 39ef 12bd
00000230: 2812 773e d2ca ee3d 70da 383e c221 93bd
00000240: cbd8 1cbe b23c cdbc a9c5 04bd 590d 52be
00000250: 4088 0ebe 8872 a53c c764 553c c3c1 843d
00000260: 55bc abbb a55a 143e 3c7d af3d fbf8 1ebe
00000270: 3af9 3fbd d056 fbbd f78b 33bd 016f 91bc
00000280: 609a 0bbe 1c67 8abc 3d25 5d3e 37d4 283d
00000290: c52c f8bd 2b43 8dbd db6d 173c 94e1 6ebd
000002a0: b263 4d3e 1d1c c13d c36b 153e df03 ba3d
000002b0: fb8a 59be 0db6 d7bd 90ed eebd ed6d 9bbe
000002c0: 8d8e 11be c51d d33c 7efe 0b3d cd6a ae3d
000002d0: 981e 22bd fcdc 8c3c 2d16 c83d 2fe2 abbd
000002e0: 4e75 46be af1a 953c 08c4 b1bc 3d12 e73c
000002f0: 1a0e ebbd 3a12 ddbc 8bc2 c13d b8be 033e
00000300: fa03 1c3d d615 f2bd 447a 4abe 04da 8cbd
00000310: 3b33 a13d e198 e53b a519 b73d 9cb1 043e
00000320: 240b 09be f5be aabd f6ae 4ebe 8ba2 87be
00000330: 53ce 4fbe 22a5 f6bb 1591 343e fefb 673d
00000340: 82c7 6cbd 454b f63c 9bcc 313e ca4e ee3c
00000350: 256c 14be b85e c2bc 48f5 65be 2581 53be
00000360: 62c4 89be 6019 b0bd 8f55 113d 4fb6 0e3e
00000370: 1555 a93c 820d f3bd fed1 6fbe 5529 46be
00000380: 8e6c 113e 6d46 6abc b3c8 0f3e 9b61 703d
00000390: cadf 18bd fa68 98bd dba4 89be 97c9 adbe
000003a0: 92b6 48be c5a5 043d cbc8 773e 9abd b23d
000003b0: 09a1 08be 161e 18bd c1ad f53d c4e8 033e
000003c0: 828c 09be 8a70 24be 85a8 cfbd 626e 25be
000003d0: 8ff6 55be 458d 79bd 4635 e5bc b6e3 783d
000003e0: abf4 34bd e562 52bc b90e aebb 12a8 b0bd
000003f0: 9f13 923e 15e5 f63c e194 5b3e 79ed 173e
0.009729905 0.18476753 -0.010798541 -0.19589947 -0.19648401 -0.21292582 -0.2747711 -0.2727434
-0.06792433 0.22896446 0.41326576 0.22525439 0.04833351 0.008645496 0.07565762 0.0496875
0.09113149 0.09037154 0.33957046 0.03606459 -0.561163 -0.26448578 0.0148658315 -0.049091864
0.0035155136 -0.08462741 0.054533716 0.1810263 -0.044866115 0.0836273 0.043096356 -0.17393245
-0.20699084 -0.26970324 -0.22251694 -0.27399138 -0.41007355 -0.21611172 0.13275819 0.07561521
-0.013813633 -0.14720914 -0.18839687 -0.04422623 -0.024912847 -0.06866436 -0.08639978 -0.19043739
-0.41761705 -0.21795358 -0.2655623 -0.26113182 -0.2992438 -0.014048635 0.15365109 -0.012019438
0.047574606 0.15266939 0.092125244 -0.11288537 -0.21917625 -0.1433722 -0.15624246 -0.15059593
-0.027674237 0.07388757 0.09430262 0.0036555901 0.037903666 0.16533943 0.13138554 0.08462038
-0.06571457 -0.055641912 0.09317655 0.17220983 -0.14784627 -0.1766812 -0.18259615 -0.07116895
-0.18341346 -0.054848004 0.0010778082 -0.021743963 0.055681787 0.059710477 0.17756535 -0.043998796
-0.24123019 -0.2496041 0.15979633 0.19687197 -0.03172538 0.045225587 0.033762388 -0.061029807
-0.13203984 0.07959344 0.16112766 -0.006030306 -0.14138615 -0.034189757 0.09766981 0.19503438
0.23176761 0.14859737 -0.036122583 0.009975875 -0.13146317 -0.11689662 0.04757787 0.23524073
-0.12196615 0.00736017 0.11468384 -0.060887095 -0.1663452 -0.007342036 0.14708701 -0.12783633
-0.2145802 0.09781435 -0.07615823 -0.016157338 0.0042582396 0.16721505 0.13866068 -0.18302244
0.002776083 -0.12919174 -0.013399817 0.084872656 -0.11415906 -0.0073328703 0.17290121 -0.010701034
-0.20802575 -0.17619927 0.0615325 -0.03587267 0.2412802 0.11659779 0.18052077 -0.07184173
-0.15317075 -0.025053356 -0.032415066 -0.20512904 -0.13919163 0.020196214 0.0130245155 0.064822696
-0.005240957 0.14487703 0.085688084 -0.15524666 -0.04686854 -0.122724175 -0.043834653 -0.017753126
-0.13633108 -0.01689487 0.21596237 0.04121801 -0.12117914 -0.06897577 0.0092425 -0.058320597
0.20057562 0.0942919 0.14591889 0.090827696 -0.21244423 -0.1053277 -0.11666405 -0.30357304
-0.14214535 0.025771031 0.03417825 0.085164644 -0.039579958 0.017195217 0.09769855 -0.083927505
-0.19380686 0.0182012 -0.02169992 0.028206939 -0.11477299 -0.02698623 0.09460934 0.12865722
0.03808973 -0.11820571 -0.19773203 -0.06877521 0.078710996 0.00700675 0.08940438 0.12958378
-0.13383156 -0.083372034 -0.2018393 -0.26491198 -0.2029355 -0.0075270096 0.1763347 0.056636803
-0.057807453 0.030065188 0.17363207 0.029090304 -0.14494379 -0.023726806 -0.22456849 -0.20654733
-0.2690764 -0.0859859 0.035481986 0.13936733 0.020670453 -0.11867811 -0.2341995 -0.19351704
0.14201567 -0.014299017 0.14041404 0.058686834 -0.037322797 -0.07441898 -0.26883587 -0.33942863
-0.19600895 0.032384653 0.2419769 0.0872757 -0.1334268 -0.037138067 0.119960316 0.12881762
-0.13432506 -0.16058555 -0.101395644 -0.16155389 -0.20894836 -0.06092574 -0.027979504 0.060764037
-0.044178646 -0.012840961 -0.0053118137 -0.08625807 0.28530595 0.030138532 0.21443512 0.14836682

fc1.bias f4 [256]
00000000: a4e5 5b3b 7b54 0fbc 7aa8 d3ba 1283 72bc
00000010: b4fc 36bc ac6b 11bd 5ff9 4abc a88a 7b3c
00000020: f259 ccbc 715d a3bc 9e6e ab3b b17c 9c3c
00000030: bc1b d9bc 70d9 05bd a8d1 e0bc a38a 8fbc
00000040: 47d6 233b 8ecd 6c3c 1a7b 21bb 0569 7e3c
00000050: 7209 d7bc b07b 533b 3461 063d fdbd ef3c
00000060: 8ea8 8dbc 2500 28bc d424 983b a528 cabc
00000070: 15be 0dbd 1b1f fabb 79d2 2bbc 6dc7 eb3c
00000080: 7aa6 b4bc 8f45 4cbc 36ad 0d3d 9c78 9e3c
00000090: 50dd 3fbc 2df3 85bc a1b5 7f3c 8828 a43b
000000a0: 52f4 883c cc3c 063d 507d 3e3c 0f27 52bc
000000b0: d14f 02bd 44e1 d6bb 4a44 93bc b11d ba3c
000000c0: 5bc7 8d3c cd18 e1bc 4e8f 973c 3733 67bc
000000d0: 3260 203c 0b37 03bd e9f7 423b 3240 bbbc
000000e0: dfd1 08bd ec22 71bc feff cd3a 50ff e9bc
000000f0: a8cb f83a e4d4 dfbb 589d 103c 6eab 5c3c
00000100: 7ed9 c7bc eb2a 71bc fa3a 5fbc bcb6 393c
00000110: 85b5 d8bc f782 c1bb e0b6 13bd a8c3 76bc
00000120: 1e79 ddbc e6a5 453c 2ec1 073c 72dd baba
00000130: 371f 8f3b 9d91 623c a2cc b1bc 03cb 93bc
00000140: 1f8f e7bc fc97 ddba 8345 05bb 987c 17bd
00000150: fd0a 423c 1b0c f43c 360d b6bc a858 973c
00000160: d55c a8bc ac24 b63c cb39 f1bc 1b7b a6bc
00000170: 37ef 92ba 5e2d 41bc 16c8 9cbc 7487 963c
00000180: 8cf0 39bc 2a32 033c 1ed1 c2bc 64a1 01bb
00000190: cba9 8f3c 9c81 00bd a15d 9dbc 2224 44bb
000001a0: 86e8 e53b f4d3 103d 54f5 c4bc 5bd6 d93b
000001b0: 6838 e3bc 2044 a4bc e8d8 ffbb f963 0bbd
000001c0: 8b6a 0cbd 28b9 0c3d 0a77 1bbc 37be 973c
000001d0: e58a c53b d9e1 0f3c a18a 423b 7305 2a3c
000001e0: d4f0 8e3c 100c 473c b613 203c 6a27 843c
000001f0: cb55 cf3c a5d6 21bd ec19 b7bc b363 463c
00000200: 4463 273b 671d fbbc 0962 a73c 0506 9ebc
00000210: 7b27 c13c bae1 79bc ecc3 b53c 03ea 1cbd
00000220: 0ced f03c d8dd cd3c 6741 0abd 38fb 703c
00000230: 0110 d83c 4f0d 1cbc 6bbd 3ebc 080b e5bc
00000240: 22a2 013d f136 0c3b d24b ecba 3771 07bc
00000250: b471 af3b 59a1 f8bb b0f7 fdbc d856 2bba
00000260: 3415 f3bc 46ac babc 0757 0abd a431 b7bb
00000270: 974d 5b3c 6ae4 15bd 2e21 d9bc f68b 84bc
00000280: f2cf e7bc c65e b43c 0f96 6fbc c6dd debb
00000290: 2dca aabc 222f 103d 4756 00bc 01c5 f6bc
000002a0: fe8f c43b 68e6 ba3c fd65 f4bc 9460 61bc
000002b0: 0533 f7bc ea17 053d c3db b6bc f287 acbc
000002c0: 6f73 973c c3ae b53c 49e9 a8bb f920 df3b
000002d0: eb81 d4bc e8af 2a3c c3aa cb3c bfd3 ea3b
000002e0: 669c c63c f038 5f3c 57ad 0ebd c685 a03c
000002f0: 3e62 2bbc 0d81 30bc a053 823c 1cb2 a2bb
00000300: 56f4 613c 4360 143d 400a 91bc 1c31 053d
00000310: 8b62 8e3c 9d91 f13c 9ffa 853c 7a8d c3bb
00000320: 3708 59bc 1265 a2bc 9cd7 ba3b a0b3 3fba
00000330: a2cd f3bb 7867 6dbc a5f4 4fbc 0233 adbc
00000340: a1a9 dc3a 16bf c7bc f666 12bc b73c 5cbc
00000350: 4513 dd3c 4730 023d 58ce 5ebc dd3b dbbc
00000360: c90e e73b 62de 7d3a 1eae 94bc 9660 53bc
00000370: 8b0e e33c a067 663c dc6b c0bc aadd 783c
00000380: cbf9 f1bc e5b2 d3bc 531a f9bc b373 8b3c
00000390: b902 8dba 30e9 553c 4924 93bb 5976 9f3b
000003a0: 1bcf ef3b b48a 01ba bf8d f43c 955b 6cbc
000003b0: 9aed 52bb b9a1 f43b a975 e4bc 131f 06bd
000003c0: 2f9b 14b9 5a86 e2bc 25f8 f5bc 528a 8e3a
000003d0: 1177 c3bc 2927 8b3c 4b47 afbc 2dba b3bb
000003e0: 76f1 d2bc 2d91 e03c 2f5e d53c 86d5 6d3b
000003f0: ad06 bcbc b235 cabb 1cf3 bd3b e193 10bd
0.0033553625 -0.008748169 -0.0016148232 -0.014801757 -0.011168648 -0.035503075 -0.012388556 0.015352882
-0.024945233 -0.019942017 0.0052316925 0.019102426 -0.026502483 -0.032678068 -0.027443722 -0.017522162
0.0024999545 0.014453305 -0.0024640025 0.015527968 -0.026249621 0.0032269768 0.032807544 0.029265398
-0.017292287 -0.010253941 0.004643062 -0.024677584 -0.034605104 -0.0076331026 -0.010487192 0.028781617
-0.022052038 -0.012467756 0.034589015 0.01934462 -0.01171048 -0.016351307 0.015607269 0.0050097145
0.016718064 0.032772824 0.0116265565 -0.012826695 -0.0318144 -0.0065576155 -0.017976899 0.022719236
0.017306974 -0.027477646 0.01850095 -0.014111332 0.00978856 -0.032034915 0.0029749817 -0.02285776
-0.033403274 -0.014717799 0.001571655 -0.028564125 0.0018981593 -0.0068307985 0.008826576 0.013468606
-0.0243957 -0.014719705 -0.013624901 0.011335071 -0.026453743 -0.005905505 -0.036063075 -0.0150612965
-0.027035292 0.012063479 0.008285804 -0.001425667 0.004367735 0.013828662 -0.021704022 -0.01804114
-0.028266488 -0.0016906257 -0.0020335622 -0.036984056 0.01184344 0.029790929 -0.022223096 0.018474892
-0.020552078 0.022234283 -0.029446503 -0.020322373 -0.0011210208 -0.011790602 -0.019138377 0.018375136
-0.011348855 0.0080075655 -0.023781355 -0.0019780034 0.017537018 -0.031373605 -0.019209685 -0.0029928763
0.0070162443 0.035358384 -0.024042763 0.0066478676 -0.027736858 -0.020052016 -0.0078078397 -0.03403089
-0.034281295 0.034356266 -0.00948883 0.018523319 0.0060285204 0.008781874 0.002968468 0.010377276
0.01744882 0.012148872 0.009770324 0.016132075 0.025309464 -0.03951134 -0.022351228 0.012108731
0.0025541345 -0.030653669 0.020432489 -0.01928998 0.023578396 -0.015251571 0.02218815 -0.03830911
0.029409908 0.025130197 -0.03375378 0.014708333 0.026374819 -0.009524657 -0.01164184 -0.027959362
0.031648763 0.0021395052 -0.0018027967 -0.008266739 0.0053541306 -0.0075875935 -0.031001896 -0.0006536073
-0.029673196 -0.022787225 -0.033774402 -0.0055906344 0.013385198 -0.036594786 -0.02650508 -0.01618002
-0.028297398 0.022017848 -0.014623179 -0.00680134 -0.020848358 0.0352012 -0.00783307 -0.030123236
0.0059986105 0.022814944 -0.029833788 -0.013755936 -0.030175695 0.03249351 -0.022321587 -0.021060918
0.01848766 0.02217806 -0.005154763 0.0068093506 -0.025940856 0.010417916 0.024861699 0.0071663554
0.024244498 0.013624415 -0.03483328 0.019595038 -0.0104604345 -0.010772956 0.015909016 -0.00496508
0.013791164 0.036224615 -0.017705083 0.032517537 0.017380973 0.02948838 0.016354857 -0.005967793
-0.0132465875 -0.019823585 0.005701972 -0.0007312838 -0.007440285 -0.014490001 -0.012692605 -0.021142486
0.0016835221 -0.024383109 -0.008935681 -0.01344221 0.026986727 0.031784322 -0.013599001 -0.026761943
0.007051323 0.00096843217 -0.018149432 -0.012901446 0.027716896 0.014062792 -0.023488931 0.015189568
-0.029538056 -0.02584214 -0.03040806 0.017022943 -0.0010758258 0.0130560845 -0.0044904095 0.004866403
0.00731839 -0.0004941628 0.029852746 -0.014426132 -0.0032185079 0.007465568 -0.027888136 -0.03274448
-0.0001417219 -0.027651954 -0.030025551 0.0010874963 -0.023860486 0.016986446 -0.0213963 -0.0054848404
-0.025749903 0.027412975 0.026045887 0.00362906 -0.022952402 -0.0061709518 0.005796803 -0.03529728

bn1.weight f4 [256]
00000000: 07d1 6f3f b309 663f 42b0 683f af8c 673f
00000010: ffec 8d3f 06de 983f fc4c 6f3f ee25 543f
00000020: acfe 063f a2c2 853f 5070 4b3f 0b1c 9f3f
00000030: e639 603f 3ccd 803f 29fa 8e3f b8eb 4f3f
00000040: 30f5 653f ad77 5e3f a584 813f 8ed4 8a3f
00000050: 682e 743f 0b36 223f 62bc 403f a6a2 653f
00000060: 1c16 5b3f f5f0 373f 8d11 4c3f 2794 803f
00000070: 6777 833f 606a 793f e263 793f 3096 263f
00000080: 802c 893f 2a5b 5d3f 8dc4 273f 202e 743f
00000090: 2612 7a3f 88f9 3e3f 6fc0 833f 2c17 763f
000000a0: b641 733f a3af 813f 839f 5b3f c0af 703f
000000b0: 7339 933f 5b03 903f dbdc 6b3f 3303 813f
000000c0: 2171 513f 2b17 733f 0162 853f f60f 5b3f
000000d0: 192e 6a3f c493 443f d73e 453f 7276 833f
000000e0: 2bf5 183f d809 563f 7139 8f3f 3efe 5f3f
000000f0: cbba 553f 7e5f 0d3f ac6e 463f 26be 843f
00000100: 20d6 813f 015a 733f a81c 703f 1b11 443f
00000110: f11e 7d3f 9817 813f 9d67 873f 8477 813f
00000120: ac65 613f 508e 593f b9b2 833f d39d 5e3f
00000130: 0a47 833f 2978 933f 274f 703f 66ba 483f
00000140: c00b 323f 7a01 6f3f 32c5 553f 48a1 383f
00000150: cde8 883f 70de 953f 08ed 513f 6c3b 9f3f
00000160: 7667 8e3f fa9e 763f 2d66 543f 4866 6e3f
00000170: 3d70 6d3f c00e 933f 916d 7d3f a36d 3d3f
00000180: 3560 873f fed2 4c3f 7302 8d3f adb0 883f
00000190: 412e 833f d010 723f f6f7 603f e290 7a3f
000001a0: fa6d 823f 1a64 363f 555f 903f 3f53 753f
000001b0: 0a41 583f b50e 573f d2c6 533f 4465 843f
000001c0: d620 883f 92a9 7d3f 7da7 823f b1e5 6c3f
000001d0: 6fd4 7a3f a6d7 5e3f 4a02 2b3f e3e9 7c3f
000001e0: e56f 533f 012b 823f 756a 613f aa64 313f
000001f0: 01a6 9d3f a319 443f 394e 523f 9d1d 7e3f
00000200: 0277 5d3f 5e41 603f 3bfe 7f3f a368 193f
00000210: 75ea 7f3f c66d 653f 0cf9 583f 17ae 8d3f
00000220: 2081 573f c6e6 7c3f d62c 7d3f ae7b 653f
00000230: 7133 723f d2b4 213f 2fc8 913f 68e4 3d3f
00000240: edbc 753f 8fc5 943f 9dce 923f e451 8f3f
00000250: fa9c 553f 0c04 943f c669 673f 8eb8 6b3f
00000260: 7e8b 7c3f a1a3 333f 9d9c 5d3f 6c2c 7b3f
00000270: fbf4 943f db21 653f be71 a13f bfdf 943f
00000280: 2d5b 833f 9a1e 3f3f 6072 863f aca4 623f
00000290: e7dc 683f eadd 723f e38b 613f 7892 783f
000002a0: 1bdb 8e3f 1999 113f a65a 753f bc19 693f
000002b0: 453d 763f e875 813f de8f 833f 5ac1 743f
000002c0: 783d 773f a5dc 4c3f aa70 6f3f 9c61 733f
000002d0: b039 493f abf3 753f b62f 663f a43c 9f3f
000002e0: a92c 843f cb3a 9d3f bdbf 4b3f e5de 7c3f
000002f0: 5e84 743f 99f5 7f3f 511a 923f 4fb6 793f
00000300: 502e 653f fa0e 8b3f a755 5f3f 20c0 833f
00000310: 0c6b 413f cb9f 6a3f 0cf2 793f 65e8 223f
00000320: d3b3 8c3f 300c 723f 2d8f 683f 5230 a43f
00000330: 2b8c 833f 441e 303f 37c7 673f de0b 6a3f
00000340: c329 773f df58 873f d21e a93f d28f 523f
00000350: f0a5 773f 5cb4 713f 5a7f a33f 0a1f 3f3f
00000360: 2ff6 6a3f 4ff3 383f 9084 483f c3b7 4a3f
00000370: 1ac3 6c3f 9dde 963f 171d 5b3f 82f9 4b3f
00000380: 02bf 703f 9f0c 5e3f 4e53 473f 3c16 913f
00000390: e101 503f 6a62 533f bbb9 653f 3e1b 713f
000003a0: aa01 953f 6935 7a3f e432 623f f9bf 983f
000003b0: f070 7e3f fdc1 7c3f e535 693f b9a9 313f
000003c0: ba61 8a3f 0cea 7e3f 5ee9 4f3f 36c1 1f3f
000003d0: 1efc 4d3f 9ebe 5c3f c7d4 583f 29e8 7c3f
000003e0: bd97 853f bf21 723f 15c1 593f 9029 833f
000003f0: 3995 3c3f aa17 183f 6228 623f 21e4 7c3f
0.93678325 0.8985855 0.9089395 0.9044904 1.108795 1.1942756 0.93476844 0.82870376
0.5273235 1.0450022 0.7946825 1.2430433 0.87588346 1.0062633 1.1170093 0.81219053
0.8982725 0.8690136 1.0118605 1.0846117 0.9538331 0.63363713 0.7528745 0.89701307
0.8558061 0.71852046 0.7971428 1.0045213 1.0270814 0.9742794 0.97418034 0.6507292
1.0716705 0.8646723 0.6553429 0.9538288 0.9768394 0.74599504 1.0293101 0.9612911
0.9502214 1.0131725 0.8579027 0.94018173 1.1501907 1.1251024 0.92133874 1.0079101
0.81813246 0.94957227 1.0420533 0.8557123 0.9147659 0.7678797 0.7704901 1.0270522
0.59749097 0.8360877 1.1189405 0.8749732 0.8348815 0.55223835 0.7751262 1.0370529
1.0143471 0.9505921 0.93793726 0.765886 0.9887534 1.0085325 1.0578495 1.0114598
0.88045764 0.84982777 1.0288917 0.8695957 1.0256054 1.1521045 0.93870777 0.7840942
0.6954918 0.9336163 0.8350402 0.72121096 1.0696045 1.1708508 0.82002306 1.2440009
1.1125324 0.9633633 0.8296841 0.9312482 0.9274939 1.1488876 0.9899531 0.7399542
1.0576235 0.8000945 1.1016372 1.0678917 1.024849 0.94556904 0.8787836 0.97877324
1.0189812 0.7124649 1.1279093 0.9583015 0.8447424 0.84006816 0.8272525 1.0343404
1.0635021 0.9908687 1.0207363 0.9253798 0.979804 0.87047803 0.6680037 0.9879438
0.8259261 1.0169374 0.88053066 0.69294226 1.2316285 0.7660162 0.8215061 0.99263936
0.86509717 0.8759974 0.999973 0.5992529 0.9996713 0.89620626 0.84755015 1.1068753
0.84181404 0.9878963 0.9889654 0.89641845 0.94609743 0.63166535 1.1389216 0.74176645
0.959914 1.162279 1.1469303 1.1196866 0.8344265 1.1563735 0.9039577 0.92078483
0.9865035 0.7017155 0.865671 0.9811466 1.1637262 0.89504784 1.2612836 1.1630782
1.02622 0.7465607 1.0503654 0.8853252 0.9096207 0.94869864 0.88104075 0.97098494
1.1160616 0.56874233 0.95841444 0.9105489 0.9618724 1.0114107 1.027828 0.9560753
0.9657817 0.80024177 0.93531287 0.95070815 0.7860365 0.9607493 0.8991655 1.2440381
1.0326129 1.2283567 0.79589444 0.9877761 0.95514476 0.9998413 1.1414281 0.97543806
0.8952379 1.0863945 0.8724007 1.0293007 0.75553966 0.91650075 0.9763496 0.63635856
1.0992378 0.94549847 0.9084347 1.2827246 1.0277151 0.6879618 0.9053835 0.9142436
0.965481 1.0573996 1.3212531 0.822507 0.96737576 0.9441583 1.277324 0.74656737
0.91781896 0.7224626 0.78327274 0.7918665 0.924852 1.1786686 0.8559126 0.79677594
0.94041455 0.8673801 0.7786149 1.133491 0.81252867 0.8257204 0.8973653 0.94182193
1.1641133 0.9773775 0.883589 1.1933585 0.9939108 0.987335 0.9109786 0.693996
1.0811074 0.9957588 0.81215465 0.6240419 0.80462825 0.8622836 0.8469967 0.9879175
1.0436932 0.9458274 0.85060245 1.0247059 0.73665196 0.5941111 0.8834287 0.987856

bn1.bias f4 [256]
00000000: 7b32 a8be 7a17 48be 42f2 0abe b258 5fbe
00000010: 515b d23c c3e6 43be 3c20 32be b97b d7be
00000020: a412 12bf 3bee 04be ae29 febe b80f 18be
00000030: 687c c8be 556f d0bd c5a5 87be 9cdb c6be
00000040: a3d1 e4be 08fd e2be c652 c0be 95dc 8fbe
00000050: 7911 cbbe 951c 04bf 1f9b 73be 636d 9fbe
00000060: 930d 96be 2a08 13bf f91f aebe 5478 a3be
00000070: a7b8 70be 8287 a3be 39d5 cfbe 1e93 9ebe
00000080: 3a45 39be 8ef3 7abe 4087 f0be a143 46be
00000090: dad3 1bbf f896 dfbe 6f5d a3be 3513 75be
000000a0: a017 4abe c73c 39be ce9b 61be 16f0 b8be
000000b0: 87be a3be cd07 95be d107 89be f393 2bbe
000000c0: ca08 75be 5cb9 a1be 3eb8 5fbe 78ad bfbe
000000d0: ad86 6fbe 0e04 03be ad7e c3be 7b19 8bbe
000000e0: 8855 bcbe f20d c1be 0dd0 87be 3292 cebd
000000f0: b5d3 71be 23d1 cebe 7ee6 b2be ddd6 19be
00000100: 431d fcbe e6c9 69bd cac5 c4be d84a a6be
00000110: 6b40 9abe 72f1 85be 0684 a7be 200b 8ebe
00000120: 4a25 a6be 33cc 49be c7e4 8abe 3475 a7be
00000130: 88e2 debb b890 b0be bc06 b2be 80ba bcbe
00000140: bea4 1cbf 4ff5 72be 459b 8abe 2bb5 cabe
00000150: a642 afbe f146 a5be 8939 92be 5ea5 3abe
00000160: f414 0bbe a4c6 cbbe 3bfd a1be 81ec 83be
00000170: 8b92 38be b62d e8bd 394c afbe b277 40be
00000180: 7695 95be 1402 a6be 5abf 33be bde3 c7be
00000190: 2820 8cbe 4808 24be 7bd0 dfbd 33d9 a2bc
000001a0: b394 57be 6b1a a6be 04a9 d5bd 1f52 90be
000001b0: 1c26 afbe 0411 8ebe e23d b3be af8a 8ebe
000001c0: f64e 6dbd 8e39 a3be 2696 8dbe 5fce d4bd
000001d0: 469a efbe 1db9 bbbe 6e7f dbbe db67 99be
000001e0: a11e d5be a8ea 8dbe 65f2 67be 198c c4be
000001f0: 27b5 2cbe 919a f3bd b4ca 9dbe fc13 7dbe
00000200: fbc1 0bbf 535a 96be b156 1cbe 7c33 b3be
00000210: 3016 cdbe 274b f3be 32be 6ebe 1472 a0be
00000220: ee16 99be 04f7 7abe 5cdd 9ebe 6490 7dbd
00000230: 3f71 e9be 002f f3be 9a87 5dbe fa8c 02bf
00000240: c906 a5be ab23 58be 6aca 82be cb46 f6be
00000250: 309f bbbe af67 8bbe fd15 a1be e11c acbe
00000260: 817c 8ebe 1628 39be 3d62 a7be 00b7 b0be
00000270: dce2 3bbe eb82 ddbe f85a 19be 2e78 62be
00000280: 44f9 e6be 85ac 20be 298d 78be fa7b 95be
00000290: 232d e0be 3331 8bbe 9773 d5be 1048 c5be
000002a0: 900a a7bd 331f dfbe b902 fdbd 6995 bebe
000002b0: c6e7 10be c6ba 64be d2ed 9dbe 4503 85be
000002c0: a904 d2be aa4d a2be 641c bfbe 91fb 8dbe
000002d0: 0eb4 debe 74c7 69be 5eb3 a3be 4a85 8fbe
000002e0: f619 4abe 9642 72be 35d1 babe 325f 63be
000002f0: 286a bfbe 4b10 78be ad49 ebbe b6ad b9be
00000300: d030 07bf 5cd0 37be 350f 0fbf 551d 4cbe
00000310: 52f5 bcbe f75d afbe 7c89 a2be 3ade 04bf
00000320: db93 bdbe 4e55 44be 40cd 8fbe 27cb 47be
00000330: 259f 4abe 0c6e adbe 1dde 95be b2f0 3cbe
00000340: 3108 f5be d6df 62be b7ab 13be 427f 94be
00000350: d10c a3be 655f bebe e3e4 e9be 716e c8be
00000360: 030a 9bbe 1390 3dbe e534 e4be 4888 f3be
00000370: 4104 b9be 9fec 50be 09bc f4bc f2df 9ebe
00000380: ddcd aebe d758 86be 02c0 a1be ae83 33be
00000390: ee3f 8bbe 563b 84be b0ac a4be 1e4e 85be
000003a0: 0051 09be 5666 debe 0f18 bcbe 36e2 04be
000003b0: 7741 9dbe bc77 a0be f357 6ebe fbc6 ebbe
000003c0: fbb0 84be d29e 7bbe b288 c8be dbf2 fbbe
000003d0: f83f a4be 0c09 86be 7188 a9be 7b3e 86be
000003e0: 38cd 7ebe 09ac 5ebe 3663 d4be 31fb a4be
000003f0: 7280 b8be 682d f4be 8c73 c8be 2590 ebbd
-0.32851014 -0.19540206 -0.13568977 -0.21811178 0.025678309 -0.19130997 -0.17395109 -0.4208658
-0.57059693 -0.12981503 -0.49641174 -0.14849746 -0.39157414 -0.10177485 -0.2649366 -0.38839424
-0.4469119 -0.44333673 -0.3756315 -0.28097978 -0.39661768 -0.5160611 -0.23789643 -0.31138143
-0.2930723 -0.5743433 -0.34008768 -0.3192774 -0.2350794 -0.31939322 -0.40592363 -0.30971617
-0.18092814 -0.24506971 -0.46978188 -0.19361736 -0.60870135 -0.43669868 -0.31907222 -0.23933108
-0.19735575 -0.18089591 -0.22032091 -0.3612067 -0.31981298 -0.29107514 -0.26763776 -0.16755657
-0.23929134 -0.3158673 -0.21847627 -0.37437034 -0.23391218 -0.12794515 -0.38182583 -0.27167878
-0.36784005 -0.37705952 -0.26525918 -0.10086478 -0.23615916 -0.40393934 -0.34941477 -0.1502337
-0.49241075 -0.05707731 -0.3843215 -0.32478976 -0.30127272 -0.2616077 -0.32717913 -0.27742863
-0.32450324 -0.19706802 -0.27127668 -0.32706606 -0.006801907 -0.34485412 -0.34770763 -0.36861038
-0.61188877 -0.2372639 -0.27071586 -0.39591345 -0.34230536 -0.32280686 -0.2855952 -0.18227145
-0.13582212 -0.39799988 -0.31638512 -0.25766376 -0.18024652 -0.11336844 -0.3423784 -0.1879566
-0.29215592 -0.3242346 -0.17553464 -0.39040938 -0.27368283 -0.16018784 -0.10928436 -0.01987896
-0.21052818 -0.3244203 -0.10432628 -0.28187653 -0.34208763 -0.27747357 -0.3500815 -0.27840182
-0.05793663 -0.31879848 -0.27653617 -0.10390925 -0.4679739 -0.36664668 -0.4287066 -0.29962048
-0.4162493 -0.2771809 -0.2265106 -0.38388136 -0.16865979 -0.118947156 -0.30818713 -0.24714655
-0.54592866 -0.29365787 -0.15267445 -0.35000217 -0.4005599 -0.47518274 -0.23314741 -0.31337035
-0.29900306 -0.24508291 -0.3102826 -0.06190528 -0.45594212 -0.47496796 -0.21633759 -0.50996363
-0.3223174 -0.21107356 -0.25545055 -0.48100886 -0.36644888 -0.27227542 -0.31462088 -0.33615783
-0.27829364 -0.18081698 -0.32692137 -0.34514618 -0.18348259 -0.43263945 -0.14976108 -0.22116157
-0.4511205 -0.15690811 -0.24272598 -0.2919615 -0.43784437 -0.27185974 -0.4168975 -0.38531542
-0.081563115 -0.4357849 -0.12354035 -0.37223366 -0.14150915 -0.22336873 -0.30845505 -0.25979057
-0.4101918 -0.31699878 -0.37326348 -0.27730992 -0.43496746 -0.22829992 -0.31972784 -0.2803138
-0.19736466 -0.23658213 -0.36487737 -0.22204283 -0.37385678 -0.24224965 -0.45954648 -0.36265343
-0.52808857 -0.17950577 -0.5588258 -0.19933064 -0.36905915 -0.34251377 -0.31745517 -0.5190159
-0.37026867 -0.19173166 -0.2808628 -0.1951109 -0.19787271 -0.33873022 -0.2927102 -0.18451193
-0.47857812 -0.22155699 -0.14420973 -0.2900334 -0.31845716 -0.37182155 -0.4568244 -0.3914676
-0.30281076 -0.18511991 -0.44571605 -0.47564912 -0.36136058 -0.20402764 -0.029874818 -0.31030232
-0.34141436 -0.26239654 -0.31591803 -0.175307 -0.27197212 -0.2582652 -0.32163 -0.2603616
-0.13409805 -0.4343745 -0.36737105 -0.12976918 -0.30714008 -0.3134135 -0.23275737 -0.46050248
-0.25916275 -0.24572304 -0.3916679 -0.49208722 -0.32080054 -0.26178777 -0.3311191 -0.26219544
-0.24882972 -0.21745314 -0.41481942 -0.32222894 -0.36035496 -0.47690892 -0.39150655 -0.11502103

bn1.running_mean f4 [256]
00000000: a371 1ec0 e6cc 71c0 1974 223d 9954 1dc0
00000010: a5cd fabf 2e0e 1340 98a5 9d3f 55d3 dbc0
00000020: 57fc a5c0 b102 e63e 9fcc 08c0 fffb eebf
00000030: 40fb 3ac0 f67d c4bf e34b d2bf 356e 6140
00000040: eda4 12c1 d13b 97c0 7d3e d3bf d35f 23bf
00000050: 05f9 57c0 f2c8 70c0 183e bdc0 8f75 1241
00000060: c339 8fbf 734f d2bf 6510 f0c0 7a93 32c0
00000070: 86df e13e 351b 9fbf bcb8 24c0 8f2f a040
00000080: e40a d2bf 415c 03bd 190c 2cc0 bc29 8a3f
00000090: 75c2 bec0 e3bc ad40 d93a 14c0 bed8 22c0
000000a0: 7b9f 9240 8ee0 7a3f 421c 5bc0 7f33 c03f
000000b0: eb1c f13f 5f48 4fbf d1a5 da3f 59e8 a63e
000000c0: afbf 5940 2906 55c0 1f59 65c0 f3c1 593f
000000d0: e179 423f c7be 82c0 5e38 8bc0 e8c4 17c0
000000e0: 824b 5740 2c2e a0c0 cada 9fbe 355b 843f
000000f0: e187 11c0 b6b0 42bf f6fc 36c0 e9d2 58bf
00000100: e5ab 05c1 1cd0 cbbf 4ead 06c0 0edd 6bc0
00000110: 02bc f5c0 b3d1 5fc0 012f 2dc0 3ed0 cd40
00000120: d749 0f3f 7781 b1bf 2609 f3bf 945b 633f
00000130: ef4e b740 bc64 b0be 8508 03c0 293a 14c0
00000140: 98e8 ab3b 5316 153e de1c d13f ea95 68c0
00000150: e204 6cbf a61d 7440 bc4a b43f 7105 06bf
00000160: d5ee 86c0 cc3a f5be 5e4a cdbf 9220 3140
00000170: c475 bcbf 8278 a73f 7e36 85c0 7afd d540
00000180: 9268 17c0 fa1f 77c0 4587 2bbf cdaa 403f
00000190: 328f f640 e836 2840 68aa e13f 3b29 283f
000001a0: eda4 7ac0 3a45 b940 a2e3 163e 54a9 dec0
000001b0: b6ec d4c0 8978 a540 7558 4440 25a4 21c0
000001c0: 2882 79bf 2e8f 9fbf a71c 0240 4884 89c0
000001d0: 9e6d 10c0 da17 e0bf fcee 0fc0 90a9 65c0
000001e0: bb42 c7bf 8ce2 96c0 4bf2 a2be 4453 4cc0
000001f0: ebc0 503e 5f9b fa40 4642 12c0 0cb1 0bc0
00000200: dfc8 9bc0 3e12 5ac0 2dc5 9fbf a36a 22c1
00000210: 8226 05c1 02c7 70c0 0f25 b3c0 50c4 3cbd
00000220: 24ef 1040 2d34 59c0 505f 19c0 4ccb a8bf
00000230: f47b d13f 15a5 74bf e3c0 dfbf 085d 39c0
00000240: ef28 9340 4d24 e1bf e167 cbbd 6b96 b0c0
00000250: 0c83 83bf 9a9b 03c0 b299 8bc0 bb75 87c0
00000260: 173a aebd f476 0bc0 efaa e4c0 38e4 8dc0
00000270: 33b8 59bd 4489 9ec0 27d6 e63f 5481 c0bf
00000280: 4f62 a7c0 60d1 4440 1d7b d8c0 e256 1cc0
00000290: a89c 59c0 8a35 09c0 b317 64c0 a232 4dc0
000002a0: 70a6 37bf 071a 60bf 1828 a8c0 3bfd 3d3f
000002b0: 3c09 4dc0 15e0 a4bf 712b d83f 6de1 18c0
000002c0: 6d95 89c0 1f81 87bf 3180 f0bf bced ef40
000002d0: a2be d5c0 eca7 1040 e648 61c0 f131 dabf
000002e0: 1ef7 0bbf 2088 febf 0093 c5bf 2a1f 6ac0
000002f0: 433e cbbf 9596 9e3f 8522 49bf fc2b 3dc0
00000300: 4459 d1c0 660e f2bf 5410 e2c0 9358 09c0
00000310: 1275 13c0 d8f4 8dbf c0d0 b0c0 97e7 b540
00000320: 699b 653d 3375 9fc0 4c6a a4bf 3486 83c0
00000330: 304b 9fbf 439a 86c0 fb6b 3cc0 18cf bdbf
00000340: 2bc0 28bf f301 b7bf 421d 83bf 38a9 a43f
00000350: 4b8f abc0 7aa5 d13f 68cf 00c0 d1fc e2bf
00000360: cea7 89c0 2b37 0740 ca10 6e40 d84b 84bf
00000370: 416d 0840 e1b5 67bf ec3d 1d40 c0c5 9bc0
00000380: 6bb7 9dc0 5d5d 043f e924 27c0 785a a33e
00000390: 51a0 2a40 57cf 503f 141f 6140 ab12 1141
000003a0: 5104 623f 3863 523f 3bc0 12c0 77e0 4f3f
000003b0: 7057 d8be 86c1 0ebf 5789 bac0 9579 dbc0
000003c0: 9b44 debf 5410 5440 dfe7 37c0 7635 12c0
000003d0: a923 0e40 2773 0d41 ada7 3fc0 bd28 a4c0
000003e0: e8d8 d1bf 4164 a1c0 9616 143f 9863 23c0
000003f0: 2a94 7340 da8a 79bf fc4d b4be 48e0 a7c0
-2.4756858 -3.778131 0.0396615 -2.4582884 -1.9594008 2.2977405 1.231616 -6.8695474
-5.187053 0.44923928 -2.137489 -1.8670653 -2.921585 -1.535094 -1.6429409 3.5223515
-9.165265 -4.726052 -1.6503445 -0.6381809 -3.374574 -3.7622647 -5.91383 9.153701
-1.1189502 -1.6430496 -7.5020013 -2.7902513 0.44115847 -1.2430178 -2.5737753 5.0058055
-1.6409574 -0.032070402 -2.6882384 1.0793986 -5.9612374 5.4293075 -2.3160918 -2.544479
4.581968 0.97998893 -3.4235997 1.5015715 1.883695 -0.80969805 1.7081853 0.32599142
3.4023244 -3.328501 -3.5835645 0.8506157 0.7596722 -4.0857882 -4.3506308 -2.3713932
3.3639836 -5.005636 -0.3122161 1.0340334 -2.2739184 -0.7605089 -2.8591895 -0.84696823
-8.354466 -1.5922885 -2.1043277 -3.685367 -7.6792 -3.497174 -2.705994 6.43167
0.55972046 -1.3867635 -1.8987167 0.8881161 5.7283854 -0.34451854 -2.047395 -2.3160498
0.005246233 0.14559297 1.6336935 -3.63415 -0.9219495 3.8143096 1.4085307 -0.5235205
-4.2166543 -0.4789642 -1.603832 2.767613 -1.4723439 1.3083651 -4.162902 6.687192
-2.3657575 -3.8613267 -0.6700328 0.7526062 7.70498 2.6283512 1.7630129 0.6568791
-3.9163163 5.7897005 0.14735273 -6.95817 -6.6538954 5.170964 3.067899 -2.5256436
-0.9746423 -1.246557 2.0329988 -4.2973976 -2.2566905 -1.7507279 -2.2489614 -3.5884743
-1.556724 -4.7151546 -0.3182548 -3.1925821 0.20386092 7.831466 -2.285295 -2.182681
-4.8682704 -3.4073634 -1.2482048 -10.151034 -8.321901 -3.7621465 -5.5982738 -0.046085656
2.264596 -3.3938096 -2.3964424 -1.3187041 1.6365952 -0.95564395 -1.7480739 -2.8963032
4.598747 -1.7589203 -0.09931923 -5.5183616 -1.0274367 -2.0563722 -4.3625116 -4.2331214
-0.085071735 -2.1791353 -7.145866 -4.4341087 -0.05315418 -4.954256 1.8034104 -1.5039468
-5.2307506 3.0752792 -6.7650285 -2.442803 -3.4001865 -2.1438928 -3.5639465 -3.2062154
-0.7173834 -0.87539715 -5.2548943 0.74214524 -3.2036886 -1.2880884 1.6888257 -2.388759
-4.2994905 -1.058628 -1.8789121 7.4977703 -6.6795206 2.2602491 -3.5200744 -1.7046491
-0.54673946 -1.9885292 -1.5435486 -3.658152 -1.5878376 1.2389704 -0.785683 -2.9558096
-6.5421467 -1.8910644 -7.064493 -2.1460311 -2.3040204 -1.1090345 -5.525482 5.6845202
0.056056414 -4.9830565 -1.2844939 -4.110132 -1.244482 -4.206331 -2.9440906 -1.4828825
-0.65918225 -1.429747 -1.0243304 1.2864141 -5.361242 1.6378624 -2.012659 -1.7733403
-4.301734 2.1127422 3.7197747 -1.0335646 2.1316683 -0.905119 2.4569044 -4.8678894
-4.92864 0.5170496 -2.6116278 0.3190496 2.666035 0.81566375 3.5175219 9.067058
0.88287836 0.82182646 -2.2929828 0.8120188 -0.4225421 -0.55764043 -5.829265 -6.8585916
-1.7364687 3.3134966 -2.8735273 -2.284513 2.2209265 8.840613 -2.994609 -5.129973
-1.639432 -5.043488 0.57846963 -2.5529537 3.8059182 -0.97477496 -0.35215747 -5.246128

bn1.running_var f4 [256]
00000000: d4c0 fe40 674b 4b41 2a43 0041 14ec c340
00000010: fe0c 1541 891b 0941 6cb8 a840 8ac0 6f41
00000020: 14bb 0e41 3caf 1641 7b2c 3b41 037e 8940
00000030: 2707 0841 193e 4141 2fd5 b440 19b3 b540
00000040: e34b c241 abf0 c641 ac07 8441 7c82 1541
00000050: 2cf7 8941 d95f d541 9460 b841 e76a 7e41
00000060: f4f7 5a41 7639 1d42 82c8 ef41 319a f740
00000070: 2322 b440 6c4a 4741 b470 8640 d751 e541
00000080: 4bf1 5241 4cd7 f440 3978 7941 8eda ec40
00000090: d64d ae41 c38f 4b41 02bb 9e40 63a0 0e42
000000a0: 453c e240 910b bb40 47d8 3541 c66a 9640
000000b0: e930 c340 3120 7140 f8cf 0141 472d e340
000000c0: a2de 8e41 5004 2b41 8070 4641 5145 a440
000000d0: 6d85 0841 cf5e 7d41 856e f140 3df3 5f41
000000e0: 98cb db40 1882 9741 fbdd 7940 2a2e f140
000000f0: 8256 b040 d29d fe41 7017 7c41 387d 4041
00000100: 5db4 0642 887d c240 dcbc a140 2ccf 0641
00000110: 5dc7 3b41 64a3 0f41 557d d940 8e47 1541
00000120: 6ed2 4741 4091 4441 e588 5d41 3977 9541
00000130: d0c3 2f41 b9eb a440 6944 a940 724e f140
00000140: 5369 e040 f241 c140 9d78 d640 5068 8341
00000150: a706 df40 869c b240 24cc 2941 56ad d740
00000160: c34a 6741 fa5f 7640 2a72 a941 92d6 2641
00000170: b2f6 c640 b46f 0c41 9b88 e540 4d42 9f41
00000180: e521 c540 b5f8 3741 a623 a040 9630 1041
00000190: bce7 4541 afad b740 d787 4f41 bc33 8f40
000001a0: 1355 f640 69fc 1841 7dc8 f940 6f81 a541
000001b0: a5ae f541 2b2c fa40 c218 4641 5d6b 1a41
000001c0: 2fed 6241 c13f 8a40 cbe2 9640 9b94 1e41
000001d0: 9257 b240 d701 3a41 7823 3e41 bc98 3541
000001e0: 0de9 1c41 f761 0142 f376 3d41 ae0d 2841
000001f0: 1c0e 9c40 b920 a641 0fd9 f140 1b3f 1b41
00000200: a151 0842 68b4 1741 5fcc b940 92dc 0942
00000210: d4f6 2942 9ca8 8f41 a60b a241 9067 f440
00000220: 9912 bc40 287c ba41 58fe 8141 bf00 4d41
00000230: abcb c340 f40c 5141 f067 fe40 53a1 a641
00000240: 8e6e 4141 149b dc40 22aa 1241 420b 9b41
00000250: e30b b241 a45e c240 f5a5 6d41 382f be40
00000260: 87cd 2e41 73d3 6241 83c7 d641 6464 4141
00000270: 2245 c640 09b0 6041 afef b840 c52b b640
00000280: 8a87 2341 cc45 4341 7626 ab41 de7e 2741
00000290: 7095 c441 4c0e c840 485e 9041 e5df a241
000002a0: 3b2f 2241 97e1 6441 8afe 2a41 26b4 9240
000002b0: 59e2 1741 19c2 2b41 fce3 0841 5904 2641
000002c0: ad7d 8c41 cd15 e740 ed9c b040 664c 2441
000002d0: 4a42 1042 218e b840 da32 bd41 d32c 1341
000002e0: 8b86 0141 0e38 9540 7aba 6141 23eb f340
000002f0: cb28 8d40 c79e 8e40 256f 1940 e125 b740
00000300: ef94 6341 f521 3141 c86b 0742 2c44 1541
00000310: 2cdb 6041 dc21 9b40 2e46 f840 08c9 8a41
00000320: 821d 1741 99d5 4d41 5541 8940 26fb f940
00000330: a472 d540 8129 2041 b122 8841 fadd b940
00000340: 1912 a140 2488 1941 1593 0d41 b1bf 7b41
00000350: af89 0441 22fe 1c41 df15 fe40 5fbe 6e41
00000360: 4627 e740 23e5 e540 8172 7441 2202 3d41
00000370: 4a24 a041 39db 6e40 5757 0d41 9792 0942
00000380: 962e b141 67c3 ff40 daad 7041 d9b7 a840
00000390: aa83 4441 b743 1e41 e4fa 5941 3b1c 7141
000003a0: bf4d b240 91f9 ca40 40d8 3441 db96 8f40
000003b0: 3f15 8540 943f 9540 a500 1642 1ea2 b341
000003c0: c127 c840 f46b f440 808a 9341 3c8f 8f41
000003d0: 1dfb 2941 468b 3f42 e1cf 8d41 5bc6 2041
000003e0: 1bbf f440 c187 0241 88ef 4a41 d2ac 2141
000003f0: 64bd dd40 c7e6 0d41 7898 8b40 610f ce41
7.9610386 12.705909 8.016397 6.122568 9.315672 8.569222 5.2725124 14.984507
8.920673 9.417782 11.6983595 4.2966323 8.501746 12.077661 5.6510234 5.6781125
24.287054 24.867514 16.503746 9.344357 17.24569 26.6718 23.047157 15.901099
13.685535 39.306114 29.972904 7.737572 5.629167 12.455669 4.2012577 28.66496
13.183909 7.6512814 15.591851 7.401679 21.788006 12.722598 4.960328 35.656628
7.069857 5.845162 11.365302 4.700534 6.0997205 3.7675898 8.113274 7.099277
17.858707 10.688553 12.402466 5.1334615 8.532575 15.835647 7.544741 13.996884
6.8686028 18.938522 3.9041736 7.5368853 5.51056 31.82706 15.755722 12.030571
33.676136 6.0778236 5.054304 8.425579 11.736173 8.97739 6.7965493 9.329969
12.488874 12.285461 13.8459215 18.683214 10.985306 5.1537747 5.289601 7.540826
7.012857 6.0393 6.7022233 16.425934 6.969562 5.581607 10.612339 6.739909
14.455752 3.849608 21.180744 10.427385 6.217614 8.777271 7.1729255 19.907373
6.1603875 11.4982195 5.0043516 9.011862 12.369076 5.7399516 12.970664 4.475065
7.697885 9.561624 7.8057237 20.6882 30.710276 7.8178916 12.381044 9.651212
14.182906 4.3202825 4.7151847 9.911281 5.5731897 11.625449 11.883659 11.349789
9.806897 32.34567 11.84154 10.50334 4.8767223 20.765978 7.5577464 9.702907
34.079716 9.4815445 5.8061976 34.4654 42.491043 17.957329 20.255688 7.637642
5.87727 23.310623 16.249191 12.812682 6.118612 13.065662 7.9501877 20.828772
12.089491 6.8939304 9.166536 19.380497 22.255804 6.074053 14.853017 5.943264
10.925178 14.176623 26.847418 12.087009 6.195939 14.042977 5.7792583 5.692843
10.220591 12.20454 21.39378 10.468473 24.572968 6.251745 18.046036 20.359324
10.136531 14.305076 10.687143 4.584491 9.492761 10.734887 8.55566 10.376061
17.561365 7.221411 5.519156 10.268652 36.064735 5.7673497 23.64983 9.198443
8.095347 4.6630926 14.1080265 7.622453 4.4112296 4.456882 2.3974087 5.723374
14.223861 11.07079 33.855255 9.329144 14.053509 4.847883 7.758567 17.34816
9.444704 12.864648 4.289225 7.811908 6.670244 10.010133 17.01694 5.8083467
5.033459 9.595737 8.848409 15.7343 8.283614 9.812044 7.94017 14.921477
7.223544 7.184221 15.277955 11.813021 20.01772 3.7321303 8.833823 34.393154
22.147747 7.992603 15.042444 5.2724423 12.282145 9.891532 13.623753 15.069392
5.5719905 6.3429646 11.302795 4.487165 4.1588435 4.664011 37.50063 22.454159
6.254853 7.638178 18.442627 17.944939 10.623807 47.88601 17.726503 10.048427
7.6483283 8.158143 12.683479 10.104692 6.929369 8.868842 4.362362 25.75751

fc2.weight f4 [64, 256]
00000000: 3f3d 49be 2309 9ebc 08e4 0b3e cd18 d13d
00000010: ebe6 3c3e 02fe d23c 3274 303e 5abe ebbd
00000020: 1231 4d3d 30d2 043e b294 01be b099 4a3e
00000030: 3153 9c3e 0f99 fd3c c683 30be ccf1 06be
00000040: 4de9 453d 8db7 563d 5384 edbd 61f2 383e
00000050: 560c 80bd 53a0 6e3d 887b 91be 5196 4abe
00000060: a903 1f3e 1693 4b3d 727c 0e3e eb2f 413e
00000070: 5134 c43d 66be 043e 4e39 483e c820 bc3d
00000080: ab3e cbbd 2dd9 9abe 106e bd3d ed3e 72bd
00000090: 6730 29be 0413 163d 3ac5 b6bd b382 6f3b
000000a0: ec44 84be 5938 b1bd bb61 5b3d 32c6 ddbd
000000b0: 8b45 cd3d c33b 0d3d 18cc 71bd cfea 4d3d
000000c0: cae2 ec3b 695c 59bd 99bf 80bd ec4c d9bc
000000d0: 3f82 453d c643 123c 83f9 753e 2287 e1bd
000000e0: b39f 16be 960a 3f3e a4c3 fcbc ec8e 0ebe
000000f0: 028b 25bd 4be7 adbd f77c f03c 72cc e53d
00000100: d57e f1bc 799c d33c 954a 2d3e 8920 bcbe
00000110: 4928 5d3e 279e 593e 331b 13be 475f 8f3d
00000120: d7bd 68be 1147 81be b031 ba3e 8f06 d1bd
00000130: 1731 673d 92b1 403e c84d c23d 9911 c2bd
00000140: db60 4f3e 172e 763e 077d 6bbc 6844 ba3b
00000150: a5b0 3cbe c808 a1be bf31 b03e af7d 4f3e
00000160: 73a1 ec3c 3092 bfbd 5a6c 463d fdfd b7bd
00000170: ce6d a63e fb72 5f3e a20d 19be d2a5 86be
00000180: e155 e8bd 24ab b6bb 731c 553e 2ee3 2fbc
00000190: 07dc 053e 6a84 d8be ef0f 64bd b079 8dbd
000001a0: 7864 053d 52cb 02be acd2 973d ed84 d23d
000001b0: 4b7f 27be be0d 0d3e 3467 7dbc bfb5 4dbd
000001c0: 7993 d1bd 8cdb 26be e6f7 833e 6ffe d4bc
000001d0: 55da 893d c312 c7bd c4c7 9e3d 9743 85bd
000001e0: 0bc7 803c 201d 043e a68f 5fbd bd33 4e3e
000001f0: cb5c cdbd 86d4 88bc 0464 a8be 8766 f3bc
00000200: 48d5 35bd 691a 8abd d7c3 fc3d c323 493b
00000210: cc96 493e e6fd b7bd 2b4d 463d 7a11 75be
00000220: 5be5 b33e bd25 14bc d71d 2dbd fc75 0cbd
00000230: 46e5 e7bd f1cd 3c3b a1ae 99bd b126 453e
00000240: ae50 233e 8996 e3bb f655 2fbe 18ea 46b9
00000250: 23d3 13be 030b 8b3d 223c 48bd 28a6 f8bd
00000260: 65e5 13be a0d3 8fbd e23d bd3d 2448 863d
00000270: 5887 a4bc 1f65 d9bd 572c ccbd b408 9fbe
00000280: 04db 80bd 94a3 06be 0865 9e3d 6ab5 d7bc
00000290: 6284 0bbe c489 ae3e 6d04 11be 7d3f f63d
000002a0: 4445 163e 7642 8f3d df9f a2be d177 2ebe
000002b0: 5430 a5bd 9a15 0fbd e26d 173c 6a66 0bbe
000002c0: f8b5 3ebe cfe3 b73d d066 8cbb c0ea 38be
000002d0: 5452 d6bc 3f26 513e 3086 0e3d 775a a93c
000002e0: 9731 2cbe 3b7a 41bd 21d4 2bbe 826e 893e
000002f0: caf1 793e a984 69be 9d14 ff3c afa0 2a3d
00000300: 7960 a53e 76e5 6f3d 314c 033e c5e8 413e
00000310: 056d 9fbe e7c3 bcbd 0e57 6abe 106b 99bd
00000320: 9c15 283e 1841 29be a393 a4be 0903 9fbd
00000330: 3a6f 9bbe 8d08 92be 63aa 6e3e 06bc cc3b
00000340: 93da 5d3e 7fb6 d3bb 084b b83d 3174 bd3c
00000350: 4ce1 eb3c c5e4 053d e00e f83d 8c1f 9a3d
00000360: cd1e 373e 82de 5bbe d673 f138 6832 fdbd
00000370: 96d2 5f3c b946 7a3e d0d0 96bd d2b3 64be
00000380: d6c9 523e a7fd 723e 606d 883d 0caf b83d
00000390: c623 fabd 864c c03d 7c0d c0bd b2c9 debd
000003a0: 35bf 86bd 46b0 2abe 01f6 9bbd 714e de3d
000003b0: 8c1f 493e 9532 0a3e 6180 c13d b855 b3bc
000003c0: cc49 793c b5d7 b7bc 37ac 4fbd 4f3d 643d
000003d0: 0d3b 33bd efb7 93be 7d10 063e 4b3a 4ebd
000003e0: 5f7d b9bd f29a 713e 8892 29be 3ae1 873e
000003f0: d368 7bbd d1da 2e3e 3377 a73b 2cf2 063e
-0.1965227 -0.019291466 0.13661206 0.102098085 0.18447463 0.025755886 0.17231825 -0.11510916
0.050095625 0.12970805 -0.12654379 0.1978519 0.3053222 0.030956773 -0.17237768 -0.13178176
0.048318196 0.05242114 -0.115975045 0.1806121 -0.06252353 0.058258366 -0.2841456 -0.19783904
0.1552874 0.04970082 0.1391466 0.18865936 0.09580291 0.12963256 0.1955311 0.0918594
-0.09924062 -0.30243817 0.092495084 -0.059142042 -0.1652237 0.03663923 -0.08924337 0.0036546409
-0.25833833 -0.086533256 0.05356 -0.108288184 0.1002303 0.03448082 -0.05903253 0.05027276
0.007229184 -0.053066645 -0.06286544 -0.026525937 0.048219915 0.008927291 0.24020962 -0.11012103
-0.14709358 0.18656382 -0.030855007 -0.13921708 -0.04041577 -0.08491381 0.029356463 0.112206355
-0.029479424 0.025831448 0.16922982 -0.36743572 0.21597399 0.21251737 -0.14365844 0.070005946
-0.22728668 -0.25249532 0.36366034 -0.10206329 0.0564433 0.18817738 0.09487492 -0.09476013
0.20251791 0.2404102 -0.014373071 0.005684424 -0.1842676 -0.31452012 0.34412953 0.20262788
0.028885579 -0.09354055 0.048443176 -0.08983991 0.3250565 0.21821205 -0.14946607 -0.26298386
-0.11344505 -0.005574601 0.20811634 -0.010735316 0.13072215 -0.42288524 -0.055679258 -0.06907976
0.032566518 -0.12772873 0.07413229 0.1027926 -0.16357152 0.13774773 -0.0154665 -0.050222155
-0.10233206 -0.16294688 0.2577507 -0.02600023 0.06731097 -0.097203754 0.07752946 -0.06507032
0.015719911 0.12901735 -0.054580353 0.20136924 -0.100274645 -0.016702902 -0.32888806 -0.029711975
-0.044392854 -0.067433186 0.12342041 0.0030691482 0.1968643 -0.08983974 0.048413437 -0.23932448
0.35135922 -0.009042201 -0.042264786 -0.034292206 -0.11323027 0.0028809274 -0.07504011 0.19253041
0.15948746 -0.0069454354 -0.17122635 -0.00018969958 -0.14436011 0.0678921 -0.048885472 -0.12141067
-0.14442976 -0.07022786 0.09240319 0.065567285 -0.020084068 -0.106149904 -0.09969395 -0.31061327
-0.06291774 -0.13148338 0.07734114 -0.026331622 -0.13624719 0.34089482 -0.14161845 0.12023828
0.1467486 0.06995098 -0.31762597 -0.17037894 -0.080658585 -0.03493271 0.009242507 -0.13613287
-0.18624103 0.08978998 -0.004284717 -0.180583 -0.026162304 0.20424746 0.03479594 0.02067302
-0.16815792 -0.04723571 -0.1678014 0.26842123 0.24408641 -0.22804512 0.031137759 0.041657146
0.32300165 0.05856844 0.12822033 0.18936451 -0.31137863 -0.09217053 -0.22884771 -0.07491124
0.16414493 -0.16528738 -0.32143888 -0.07764251 -0.30358297 -0.2852215 0.23307185 0.006248
0.2166541 -0.006460964 0.08998686 0.023126693 0.028793953 0.032688875 0.12112212 0.07525548
0.17882843 -0.21471599 0.00011513352 -0.1236313 0.013661047 0.24441041 -0.073640466 -0.22334221
0.20584807 0.23729573 0.066614866 0.090177625 -0.122138545 0.09389596 -0.09377572 -0.10878314
-0.065794386 -0.16668805 -0.07615281 0.10854805 0.1964094 0.13495858 0.094483145 -0.02189146
0.015215348 -0.022441724 -0.050701346 0.05572253 -0.043757487 -0.28851268 0.13092227 -0.05034856
-0.09057116 0.23594263 -0.16559803 0.26539022 -0.061379265 0.1707566 0.005110645 0.13178319

fc2.bias f4 [64]
00000000: 9b6a 7a3c 78a3 1b3d 4523 69bd cec8 843d
00000010: f2a3 3e3d a0f7 483d 7c82 babc 9df7 583b
00000020: 0737 c13c f3e9 4dbd 3131 903c 27a0 28bd
00000030: 9134 9f3b 6d58 4bbd 1ad5 c3bc 5b18 87bc
00000040: 4eed 553d 2b3a 183d 35e4 f23c 17b4 aebc
00000050: c13e 543d 51ac 823c 4b0c 553c bc04 c63c
00000060: 9c07 5e3c 430f 21b9 9e9e d5bc ea50 303d
00000070: 9349 ccbc d7e2 223c 9e44 5abd b51f 06bd
00000080: 0fa7 08bb 606f 6ebd 1f9b e53c 4060 003d
00000090: 2a11 bcbc 38ea 2bbc ffd5 8ebb b3b0 5a3d
000000a0: 7333 eb3c 2a4e a53c d7ce 243d 3330 31bc
000000b0: 319b 0d3d 4a3f 2a3d 77a1 d03c 0891 093d
000000c0: 7754 3a3b e7d7 163d e4cb 253c 5aab 043c
000000d0: a07f d93c 2578 7dbd d7ee 533c 87ba 963c
000000e0: c88b 36bd b89f 9ebc 4722 203d 73cd 03bb
000000f0: d63a 8dbd 5f43 c53b 42a8 2d3d a16c 913d
0.015284206 0.037997693 -0.0569184 0.06483613 0.04654307 0.04906428 -0.022767298 0.0033106573
0.02358581 -0.05027194 0.017601581 -0.04116836 0.0048585613 -0.049644876 -0.023905326 -0.016491106
0.052228265 0.03716485 0.029649833 -0.021326108 0.05181766 0.015951307 0.013003419 0.02417218
0.013551619 -0.00015359842 -0.026076611 0.043045916 -0.024937427 0.009941778 -0.053288095 -0.032745082
-0.0020851528 -0.058211684 0.028028069 0.03134179 -0.022957403 -0.010492854 -0.0043590064 0.05339117
0.028711056 0.020178873 0.04023632 -0.010814714 0.03457183 0.041564263 0.025467617 0.03358558
0.0028431693 0.036826994 0.010119412 0.008097494 0.026550114 -0.061882157 0.012935362 0.01839949
-0.0445669 -0.01936327 0.03909519 -0.002011147 -0.06895988 0.006019994 0.04239679 0.071007974

bn2.weight f4 [64]
00000000: 7621 d43f 561b a23f 011b bf3f f3c8 c13f
00000010: 3772 d63f 0f06 bd3f 3238 c33f 86b5 ab3f
00000020: 4f91 c33f 60fb ba3f 5966 c03f 1698 e23f
00000030: ce1b c73f 114c b73f 180c c23f 3173 ad3f
00000040: b6a1 b73f 3b98 ae3f bc0f d13f 4f04 be3f
00000050: 04d2 b23f 2342 b03f e079 bb3f ed34 ba3f
00000060: b3b4 bd3f 4d0d c93f 7245 c33f a879 c23f
00000070: 2780 b93f 4dde b33f 1eb7 c83f 20ca bb3f
00000080: 87a0 ce3f ac4b d23f 8b52 bc3f e8c0 be3f
00000090: 71a0 b03f e8c5 af3f 3f92 a73f aa5f c23f
000000a0: 2ce3 ad3f a1eb bd3f aba4 ff3f eca9 c43f
000000b0: ad33 ba3f a1f8 af3f ee25 c53f ef2f a53f
000000c0: 5f2a cc3f 9d1a d93f 46e7 bd3f d0a3 b43f
000000d0: 9b68 dd3f 7280 b93f 4bee a63f 659c b03f
000000e0: 4bbf c83f 5038 bd3f 33dc ab3f 2cda ae3f
000000f0: 53a3 c23f 4688 b53f ee0e bd3f 0098 a43f
1.6572711 1.2664592 1.4930116 1.513945 1.6753606 1.4767474 1.5251524 1.3414772
1.527872 1.4607964 1.5031234 1.7702663 1.555536 1.4320089 1.5159941 1.3550779
1.4346225 1.3640207 1.6332927 1.4845065 1.3970342 1.3770183 1.4646568 1.4547402
1.482077 1.5707184 1.5255568 1.5193377 1.4492234 1.4052216 1.5680883 1.4671059
1.6142739 1.6429343 1.471269 1.490262 1.3798963 1.3732271 1.3091506 1.5185444
1.3584952 1.4837533 1.9972128 1.5364356 1.454702 1.374775 1.54022 1.2905253
1.5950431 1.6961247 1.4836204 1.4112492 1.7297548 1.4492323 1.3041471 1.3797728
1.5683378 1.478281 1.3426574 1.3660331 1.5206093 1.4182212 1.4770181 1.2858887

bn2.bias f4 [64]
00000000: 5655 943e 1cce a03c 1a8b 923e 4677 533e
00000010: 3e92 9a3e 1c2a a93e c2ef 343e 26ab 0e3e
00000020: 6860 903e 4d89 3a3e 8803 393e 141b 253e
00000030: 5b48 883e 89f6 b63d aafc 883e 90de 953e
00000040: 07e4 853e 511e 883e 0c3f 5c3e 7f75 273e
00000050: 0a25 5b3d 917c 6a3e e52f 943e cb4e 983e
00000060: 0c8f 853e 334b 833e ecd5 073e d3ea 243e
00000070: 2ed6 263e dfbc 6b3e cdcc 5c3e 8667 5a3e
00000080: 910c a33e d5fd b83e a434 453e 0c5e 713e
00000090: 45f7 5a3e eb67 933e 58b5 723e 08ed 663e
000000a0: ef49 5a3e 1f15 513e 5bff 9a3e b323 923e
000000b0: 0760 413e 643d 223e c33e b53e 90b4 743d
000000c0: 323c 643e 214f ba3e 812f fb3d 1adb 6f3e
000000d0: 88c9 943e a1e2 8a3e a071 ac39 33da 3b3e
000000e0: 022d 6b3e 9496 803e 4da7 213e 498b 593e
000000f0: df90 9c3e fd47 353e 2bc8 3d3e fb33 5a3e
0.28971356 0.01962953 0.2862175 0.20650968 0.301897 0.3303994 0.17669585 0.13932475
0.28198552 0.18216439 0.18067753 0.1612361 0.26617703 0.089337416 0.26755267 0.29271364
0.26150534 0.2658563 0.21508425 0.16353415 0.05350212 0.22899081 0.2894279 0.29747614
0.260857 0.2564331 0.13265198 0.16105203 0.1629264 0.23021267 0.215625 0.21328554
0.31845525 0.36131158 0.19258362 0.23571032 0.21383388 0.2879022 0.2370199 0.22551358
0.21317266 0.20418213 0.30272946 0.2854286 0.18884288 0.15843731 0.35399446 0.05974251
0.22288588 0.36388496 0.1226492 0.23423424 0.29060006 0.2712603 0.00032891054 0.18344955
0.22966388 0.25114882 0.15786476 0.2124454 0.30579278 0.17703243 0.1853339 0.21308891

bn2.running_mean f4 [64]
00000000: 4167 c83d 7f7b 803f 84d1 1dbf 8048 a83f
00000010: ed09 ed3f d92e 813f dfed b63f ef0e df3e
00000020: df6d 50bf 3838 2340 45f1 743f 97ea e13f
00000030: eb57 d23f e95e 1f40 21d4 b6be 63d7 6e3f
00000040: db9b be3f 1a81 95bf 9d90 ce3f 0b58 dfbe
00000050: b4d8 e5bc 6304 c73e 22a5 cf3e aac9 8f3f
00000060: fb8a 513f af16 8b3f 08f6 f13e 4b3b de3f
00000070: 270f 27be 1cf7 873e 1796 cbbf df3f 9d3f
00000080: a654 743f 02b1 c2be c320 eebe 5c49 71bf
00000090: 675f 623e 18be 843e 0082 de3f 670f b53e
000000a0: 0d30 1140 67a8 cb3d f45e be3f 43f6 d6be
000000b0: 99d9 043f 6a20 193f 3799 cf3e 2d27 c63f
000000c0: b4b1 11bf 673c 683f 9fd7 1640 461f 99bf
000000d0: 5f27 d83f 5d7a 433f 79df af3f d7b9 6dbf
000000e0: 5459 08be b8e3 efbd 7736 063f 9bae e63e
000000f0: 129d 733f 6969 0e3f 4642 48bf eab8 183e
0.09785319 1.0037688 -0.6164782 1.3147125 1.8518654 1.0092422 1.4291342 0.4356608
-0.8141765 2.5503063 0.9568065 1.7649716 1.643308 2.4901679 -0.35708717 0.93297404
1.4891313 -1.1680024 1.6137882 -0.4362186 -0.028057434 0.38870534 0.40555674 1.1233418
0.8185269 1.0866297 0.4725802 1.7361845 -0.16314374 0.26555717 -1.5905179 1.2285117
0.95441663 -0.3802567 -0.4650937 -0.9425256 0.22106706 0.2592628 1.7383423 0.35363314
2.2685578 0.099442296 1.4872727 -0.41984758 0.5189453 0.59815085 0.4054658 1.5480705
-0.5691178 0.90717167 2.3569105 -1.1962669 1.6887015 0.76358587 1.3740073 -0.92861694
-0.13315326 -0.11713356 0.52426857 0.45055088 0.95161545 0.55629593 -0.78226125 0.14914289

bn2.running_var f4 [64]
00000000: a05b 1440 6fe8 5640 42a6 9a40 d6e8 a540
00000010: 0e15 ab40 57e6 8f40 8a11 b040 9105 6e40
00000020: b785 a540 b49a 7f40 bbd9 ca40 1d63 cd40
00000030: d829 b840 4e8f b240 7c48 5e40 fc1f a140
00000040: 0acd ac40 b677 7a40 d854 5840 e124 9640
00000050: d014 6e40 30f0 c240 02e7 6740 b15c 6640
00000060: 9e0a 8f40 e42f 8540 359a 8840 0f29 7b40
00000070: 231b 7640 a4ad a440 d617 bd40 5950 9540
00000080: 72b7 a040 54ee c340 49a4 8340 156d ab40
00000090: 3d84 d040 9f1f 8b40 b86f 6340 d2e0 b640
000000a0: edef 6b40 56b9 af40 7b64 b940 4100 8a40
000000b0: 1f51 5540 833f 8f40 e82b 5640 80a9 5640
000000c0: 60ec 5840 905a 5440 bd22 7d40 f417 a840
000000d0: 3b30 8840 c613 9b40 8ddb a440 3d6b 4d40
000000e0: 559d 4540 def9 1c40 a095 be40 4172 8540
000000f0: f6c9 6f40 13e4 8e40 b8ea 8a40 e880 6e40
2.3180923 3.3579366 4.832795 5.1846724 5.34632 4.4968677 5.502141 3.7190897
5.1725726 3.9938173 6.3390784 6.418349 5.755108 5.5799932 3.473174 5.0351543
5.400029 3.9135566 3.3801785 4.692002 3.7200203 6.09182 3.6234746 3.5994074
4.470046 4.162096 4.268824 3.924381 3.8454063 5.1461964 5.9091597 4.666058
5.022393 6.122843 4.1138043 5.3570657 6.5161424 4.34761 3.5536938 5.714944
3.686519 5.491374 5.7935157 4.312531 3.3330762 4.476503 3.3464298 3.3540955
3.3894272 3.3180275 3.9552453 5.252924 4.2558875 4.8461637 5.1518006 3.2096703
3.0877278 2.4527507 5.955765 4.170197 3.7467017 4.465341 4.341152 3.7266178
