Fintech/2023 fall/ML_day7/FMNIST_nn_dropout.pth (torch, 882163 bytes, 8 tensors)

fc1.weight f4 [256, 784]
00000000: 622d 7cbc 766d 98bc f3e8 31be b8a3 48bd
00000010: 83a5 303d bf9b 633e 047f 603e ce5a de3c
00000020: 2c96 07be bde9 343e 65ad a73e 4dc4 9c3e
00000030: eebe b3bc d0c7 88be 0904 b1be 118c a1bd
00000040: 5818 963d 254f 5d3e 8682 1d3e 4a21 87bd
00000050: 6605 57be 3923 91bd 1400 843c dec1 3d3d
00000060: 2b77 92bd 25bd 43bd 42e4 cc3b 8782 77bc
00000070: d94d f739 2c51 1bbc fb35 83bd ea22 60bd
00000080: 37e1 5b3d 8a80 a33d a1ae 973d 1ece c63a
00000090: 54a7 d83e 7a50 053f 944e 873e 7eaf c13d
000000a0: 73b9 1a3d 7640 0fbc 3297 41bd 00b3 a8bd
000000b0: d7f9 11bd f551 a63d 9d15 ab3e 5786 d33e
000000c0: 0272 fb3d 6156 23be 1dbc d7bd d7d8 6cbc
000000d0: 00cb c8bd ad52 c8bd 86fc e7bd f106 92bd
000000e0: 94ef 0fbd 2f3f fcbd 28c8 3dbe 0efd 1abe
000000f0: 60cb b5bd c9cf 7cbd e960 6fbe de3e 303e
00000100: a847 e23e 4379 813e fef7 0b3e 02d6 213d
00000110: 56ad 09be 6348 19be 3968 b1bd cb36 2ebe
00000120: 87c5 1dbe 8443 a53c 49d6 063e e76a 8b3e
00000130: 2288 1b3e 5aae c5bd dc86 85be 1de8 efbd
00000140: 622a febd a64f 8cbd 1433 18be 3220 1cbe
00000150: e7ee 973c 4336 47bd c162 92bd 9c5a efbd
00000160: b861 43be dd59 c0be b732 47be 3d28 8e3e
00000170: 6b90 903e c8de d23c 7714 e13d 8d61 db3d
00000180: 62cb 5dbd 70d2 e5bd dad4 e2bd 3b9b 61bd
00000190: 8f3c 0fbe 2978 143b 74e1 cabd a797 0e3b
000001a0: e322 253e 8379 bebd 0ccd bcbe 9e6d 99be
000001b0: 97b5 9bbe 0b63 46be 2490 aabd 9d3a a6bd
000001c0: f9ac c93c 6c81 47bd 8a82 2c3d 28e0 fdbd
000001d0: f4c9 a4be 2f67 12bf e44b 1ebe 1355 623e
000001e0: fd79 e03d c058 fb3c 6e18 f73d 574c 053e
000001f0: 66f1 7c3c 6b4e 12bd 30d7 4cbd 39b2 75bd
00000200: ca67 eebd 63eb 623b 2cb2 95bd a4d2 c5bd
00000210: 8e4f ad3d 0143 efbd 7e3d eebe 374d f2be
00000220: c86d ddbe 45bc 87be 7652 f0bd 44bd 86bb
00000230: c8ef 0d3d 7b9c 02bd 9445 a8bd cfea 27be
00000240: 9f99 fabe 152f 0dbf 6099 67bd b1a6 b43d
00000250: e472 093e 4a40 093e 0629 e43d 933f 083e
00000260: c44a 8e3d c500 72bd 2dc6 08bd b70c 4f3d
00000270: 6705 8abd 1fe5 bdbd ccfb 72bc b04b 4bbd
00000280: 9cc6 2d3d e85d 27be 8756 0abf 9666 29bf
00000290: a13c 08bf d338 89be 4dbe c0be c022 6dbe
000002a0: a89b 463d 1173 93bd 5742 d7bd 3cb0 1abe
000002b0: 8f87 01bf 85ce fcbe 45f7 9cbc 0a90 383c
000002c0: a765 cfb9 d98a 2d3e 6149 023e a948 0e3d
000002d0: 548f ea3d 154f 7d3c 04ed f0bd e025 09bd
000002e0: 2704 a0ba b974 e73c 6314 0b3e 5bca d53d
000002f0: 3c89 edbc 8baa 08be cab2 06bf 942e 34bf
00000300: 4af0 1cbf 5981 dcbe ef64 06bf b3df 86be
00000310: 4c9a f53a 7c8b debd f598 24be 820b 85be
00000320: 77b1 f7be 1abd f8be 29ea 95bd ad67 43bd
00000330: 2849 17be 30f5 9d3d 98f6 bd3d 8ddd 7dbb
00000340: 49e5 3abc 3d28 5abc f544 f0bd b511 74bd
00000350: a23e 05bd fe6d fa3d c7a7 0a3e af4f 8e3c
00000360: ba18 7fbd e7db 17be cfe0 d8be de35 f6be
00000370: c4c9 d6be 4f4b eabe b7aa f3be 0d5b 53be
00000380: 8024 a0bd 7d2d e3bd f7dc 1bbe 4154 a5be
00000390: f5f0 f3be 9279 ddbe 0d23 06be 217d 39be
000003a0: bb88 52be e194 1f3b 2851 283d 9f0d fdbc
000003b0: c731 36bd ad2d 9dbd ebb9 1ebd 96b8 09bd
000003c0: 8baa 063c 522c 263e 91e9 023d 3a99 17bd
000003d0: 68f4 6dbd 8777 e8bd 4b09 a5be 33d1 f7be
000003e0: 5541 b9be 1bcc 8cbe 357a 59be 1e6e 92bd
000003f0: 6a1c acbc 7f0d 03be ffbf 34be 38d1 6bbe
-0.0153916795 -0.018606883 -0.1737402 -0.04898426 0.043126594 0.22227381 0.21923453 0.027142908
-0.1324088 0.17667289 0.32749477 0.30618516 -0.021941628 -0.26714945 -0.3457339 -0.07888044
0.07328862 0.21612222 0.15381822 -0.06598146 -0.20998153 -0.07086796 0.016113319 0.046327464
-0.07151636 -0.047787804 0.0062527964 -0.015106804 0.00047169512 -0.009479802 -0.0640678 -0.054720797
0.05368158 0.07983501 0.07406355 0.0015167629 0.4231516 0.5207592 0.26427138 0.094573006
0.037774514 -0.008743396 -0.04726333 -0.082372665 -0.035638656 0.08121101 0.33414927 0.4131343
0.12277605 -0.1595092 -0.10533927 -0.0144559955 -0.09804344 -0.09781394 -0.11327462 -0.0713023
-0.03514059 -0.12316739 -0.18533385 -0.15135595 -0.08876681 -0.061721597 -0.23376812 0.17211482
0.44195294 0.25287828 0.1366882 0.039510734 -0.13445029 -0.1496902 -0.08662457 -0.1701309
-0.15407382 0.020173796 0.13167681 0.27229998 0.1518865 -0.096523955 -0.26079452 -0.11714194
-0.12410428 -0.06851129 -0.14863235 -0.15246657 0.018546535 -0.048635732 -0.07147742 -0.11687204
-0.19080245 -0.3756856 -0.1945294 0.27765074 0.28235182 0.025740996 0.109902315 0.10711966
-0.05414904 -0.112217784 -0.110757545 -0.05507968 -0.13987945 0.002265463 -0.09906283 0.0021757872
0.1612659 -0.0930052 -0.36875188 -0.29966444 -0.3041198 -0.1937372 -0.08328274 -0.08116648
0.024618613 -0.04870741 0.04211668 -0.1239627 -0.32185328 -0.57188696 -0.15458637 0.22102766
0.109607674 0.030681968 0.120652065 0.13017403 0.015438413 -0.035719316 -0.050009906 -0.05998442
-0.1164089 0.0034625165 -0.07309374 -0.09659317 0.084624395 -0.11682702 -0.4653129 -0.47324535
-0.4324782 -0.26510826 -0.11734478 -0.0041119177 0.0346525 -0.031887513 -0.08216396 -0.16398166
-0.4894533 -0.55149966 -0.056542754 0.08820856 0.13422734 0.1340343 0.11140637 0.13305502
0.06947854 -0.059082765 -0.03339212 0.050549235 -0.06739312 -0.09272217 -0.014830541 -0.049632728
0.042425737 -0.16344416 -0.5403828 -0.6617216 -0.5321751 -0.26801166 -0.37645188 -0.23157787
0.04848829 -0.071996816 -0.105107 -0.1510629 -0.5059747 -0.49376312 -0.019160876 0.01126481
-0.00039557854 0.16947497 0.12723304 0.034737263 0.11453119 0.015460749 -0.11763957 -0.033483386
-0.0012208269 0.0282539 0.13581996 0.10438987 -0.028996103 -0.13346307 -0.5261656 -0.7038357
-0.6130415 -0.43067434 -0.5249776 -0.26342544 0.0018738001 -0.10866448 -0.16073973 -0.25985342
-0.48377582 -0.48581773 -0.07320053 -0.047706295 -0.14774 0.077127814 0.0927555 -0.003873679
-0.011407205 -0.013315258 -0.117319025 -0.0595872 -0.032530434 0.122280106 0.13540564 0.01737198
-0.06227944 -0.1482998 -0.42359015 -0.48087972 -0.4195081 -0.4576058 -0.47591183 -0.20640202
-0.07819462 -0.110926606 -0.1522101 -0.32290843 -0.47644773 -0.43256813 -0.13099308 -0.18114139
-0.20559971 0.0024350213 0.04109302 -0.030890284 -0.044481065 -0.076747276 -0.038751524 -0.0336233
0.008219372 0.16227844 0.031961028 -0.037011363 -0.058094412 -0.11350923 -0.32233652 -0.48401794
-0.36182657 -0.2749947 -0.21238025 -0.071499094 -0.021009643 -0.12798117 -0.17651366 -0.2302903

fc1.bias f4 [256]
00000000: 7ff3 43be 8920 053f 962e 0bbf 7ab4 d73d
00000010: 4f7d dabe 188e 9ebc 1fac ef3b 954c 56be
00000020: 071f 10bc 7619 823c 3ccb 25bc 48c4 b6bd
00000030: fc55 b5be 6c26 e03d 0254 bbbb f016 f8bc
00000040: f45f 04bd 8913 d13e 3278 19bd 6f57 71be
00000050: afb9 16bb 2166 1bbd 4564 a1bc d366 3fbd
00000060: dc89 90bc 03af bbbc 7124 8e3b 486f 323f
00000070: 4ece 0a3f 5a69 743e 39f9 d7be 391f ffbc
00000080: 7247 94bd 4002 debc 43f7 05bf 1818 a33e
00000090: 5a51 cdbd 3a21 06bf ff60 b5be b004 b7bd
000000a0: fae0 e53e 7c68 213c 85d0 7ebb 5890 ecbc
000000b0: cd27 b7bc 9f01 abba e6b1 bebe 9d20 45bf
000000c0: 70e7 b3be ef39 2cbf 8c0a df3e 6bb9 c8bd
000000d0: a762 1cbf 6246 afbd 7f18 6abc bd8f fb3d
000000e0: 1430 f2bc 6969 cfbd dbc6 c73c fb3d 07bf
000000f0: 4595 003e 35c1 3abc 5627 cbbe e3ad 00bd
00000100: 2afb eabc 23b0 dc3d 1907 25bd 9710 2cbc
00000110: c6d8 05bd 5fbe 76bb 6ae5 7f3c c50e 4abd
00000120: d4bb a1bd 06a5 dd3c 8190 f7bc 002b 9e3e
00000130: d4f5 3c3f ee68 e1bd 43de 0ebf abe4 633e
00000140: 6190 1fbf 488f f83e d4b2 d83c a942 60bd
00000150: a095 babc 92cf 2dbd 0ff2 28bf 745f 163f
00000160: 742d d43d 7954 80be 09a4 88bd e77c 9f3e
00000170: 93b7 26be 4fc2 0e3e 2cfd 603d 2200 4abc
00000180: 130f 903c cbbe 7dbe 5da5 c7be 1b22 cbbe
00000190: 81c8 cc3c 176d 7fba bd6e 7bbc bd30 01bc
000001a0: 6437 883d e6e0 8cbc 215e 16be 8071 59be
000001b0: 8d58 9dbc d94e f5be 9d77 93ba dbbd 54bd
000001c0: 49bc c9bd 6133 bcbe f58c 37be 6a70 8abe
000001d0: c75a 6d3d ca44 9f3d 245b a7bb 452e 91be
000001e0: 9148 ab3c ab63 41bd 3def 0bbc 36cb 0cbd
000001f0: 44aa 5b3b 5210 92be 65eb 1ebc a8ef 8abc
00000200: 4d6c 18bd b946 c0bb 33f1 26bc 7303 14bd
00000210: 47a7 24be 8d28 6dbe 8dfc 65be 43c9 443f
00000220: b813 15bc 0df6 83bd 1328 993e ada2 66bd
00000230: 35aa 62bc 1648 4abe 7224 e3be a961 37bd
00000240: bbfd c2be 19dc c43e d3a6 183f cf08 b3be
00000250: cf23 2bbd 20d6 2bbb cc8b 05bd f3e2 6f3a
00000260: 0fab f8bc 8a1a 9bbd 3a68 63bc 8811 b33e
00000270: 0266 9dbd 394d c0be 7a1b d83d 3c87 75bd
00000280: 7881 02be d809 a03e d71d 75bc 3298 293e
00000290: c979 893d 4851 95bc bd5f 1fbf a1d0 23bf
000002a0: d1e4 59be a141 95be 57fe c33d 0f5c 253d
000002b0: 4191 d73c c1b7 893e ef0c 8abe 4f72 98bd
000002c0: e1d9 cd3e cbb2 00bf 702d 28bd e8f3 1ebc
000002d0: 3b78 e8bd aedc cd3d a793 b7bc 5a55 66bd
000002e0: f4fc 24bf 5de7 c13c 12e4 883e cc05 1c3f
000002f0: 8c37 7b3b b183 25bd 9c97 84be a971 edbb
00000300: 9b2a cbbe a691 dbbd d167 b0be d2a2 6b3b
00000310: 9dde 01bd f29b e4bb 70fa 27bd b9f9 a93e
00000320: 3d70 543f e261 03bf 94fa 54be ea86 02be
00000330: 221c 42bd a946 45bd 3ad9 54be cc54 1ebd
00000340: aa18 1cbf e40c 36bf 2a8e 363d 315c 25bd
00000350: f844 23be 4cb5 d93a 2f98 f1be 66b2 c4bc
00000360: 1eab 2dbd 8dcf 45bf 8026 30bc 3924 17bf
00000370: 9b90 26bf 327c 9e3c 119f 95be df9c 2abd
00000380: aeb2 aebc b1c1 8ebd d591 e4bc 496f 483f
00000390: 61d3 d73d 3cfb b6bc c82a 91be 680e 493d
000003a0: 11fd 883d 0a25 a539 6d4f 303d 5f53 ec3b
000003b0: 3307 aebc ee99 55bd 9467 3cbc ffe3 9e3c
000003c0: 7649 f1bc 19fe 19bd 6681 1cbd 54fb b23c
000003d0: d450 e9bc 918c 21bd ba5d 803d a85d 67bd
000003e0: 1e40 adbc c1e2 2dbf d347 b4be 1cf4 79bd
000003f0: fb6b 2f3d 756e 6d3f 8750 9d3e 519f 14bd
-0.19135855 0.5200277 -0.5436796 0.1053247 -0.42673728 -0.019354865 0.0073142196 -0.20927651
-0.00879646 0.015881281 -0.010119256 -0.089241564 -0.35417163 0.109448284 -0.0057168016 -0.030284375
-0.03231807 0.40835217 -0.037468143 -0.2356851 -0.002299886 -0.037939195 -0.019701133 -0.04672892
-0.017643861 -0.0229106 0.0043378402 0.6970105 0.54221046 0.23868313 -0.4218233 -0.031142818
-0.072401896 -0.027100682 -0.52330416 0.3185432 -0.10025282 -0.5239445 -0.35425565 -0.08936441
0.44898206 0.009851571 -0.0038881612 -0.028877422 -0.022357846 -0.0013046748 -0.372451 -0.7700289
-0.3513751 -0.672759 0.43562734 -0.09800991 -0.6108803 -0.08558346 -0.014288067 0.12283275
-0.029563941 -0.10127527 0.024386814 -0.5282895 0.12556942 -0.011398603 -0.39678448 -0.03141583
-0.028684217 0.10775783 -0.040289972 -0.010502002 -0.032677434 -0.003765009 0.015618661 -0.04933049
-0.078971535 0.027056228 -0.030220272 0.3089218 0.73812604 -0.11006342 -0.55807894 0.22255199
-0.6232968 0.48546815 0.02645246 -0.054751072 -0.022776425 -0.042434283 -0.6599435 0.587394
0.10360232 -0.25064448 -0.06671912 0.3114998 -0.16280966 0.1394131 0.054928944 -0.012329133
0.017585313 -0.24779813 -0.3899335 -0.39674458 0.024997951 -0.00097437337 -0.015346226 -0.007885155
0.0665119 -0.017197084 -0.14684345 -0.21234703 -0.019207263 -0.47911718 -0.0011250857 -0.051938873
-0.09850366 -0.3675795 -0.17924865 -0.2703889 0.0579479 0.07776792 -0.0051073004 -0.28355613
0.020908626 -0.04721419 -0.008540926 -0.034373485 0.0033518234 -0.28528076 -0.009699677 -0.01695998
-0.03721266 -0.005867806 -0.010189342 -0.036136102 -0.16079436 -0.2316 -0.22459622 0.768696
-0.00909894 -0.06443415 0.29913387 -0.056307483 -0.013834526 -0.19754061 -0.44363743 -0.04477087
-0.38084206 0.3844917 0.59629554 -0.34967658 -0.041782197 -0.0026220158 -0.032604024 0.00091509445
-0.030355005 -0.07573421 -0.01387983 0.34974313 -0.07685472 -0.37558916 0.10552116 -0.059943423
-0.12744701 0.3125751 -0.014960728 0.16561964 0.06712682 -0.018227234 -0.6225546 -0.6399022
-0.21278693 -0.29151633 0.09569996 0.040370997 0.02631438 0.26898006 -0.26962993 -0.07443678
0.4020529 -0.50272816 -0.041058958 -0.0097017065 -0.11351057 0.10051857 -0.022409273 -0.05623374
-0.64448476 0.023669893 0.26736504 0.60946345 0.003833267 -0.040408794 -0.2589692 -0.0072462154
-0.39680943 -0.107211396 -0.34454206 0.0035955203 -0.03170644 -0.006976598 -0.04101032 0.33198336
0.8298376 -0.5132123 -0.20798713 -0.12746778 -0.04739011 -0.04816309 -0.2078599 -0.038655087
-0.60975134 -0.7111342 0.044569172 -0.040371124 -0.15944278 0.0016609817 -0.4718642 -0.024010848
-0.04239952 -0.7726982 -0.010751367 -0.59039646 -0.650644 0.01934633 -0.2922292 -0.04165351
-0.021325435 -0.069705375 -0.02790157 0.7829481 0.10538364 -0.022336595 -0.28352952 0.049086004
0.066888936 0.0003149885 0.043044496 0.007212087 -0.021243667 -0.052148752 -0.011499304 0.019395826
-0.029453974 -0.037595842 -0.03820934 0.021848358 -0.028480925 -0.039440695 0.06267877 -0.056485802
-0.021148738 -0.67924124 -0.35211048 -0.061023816 0.042827588 0.9274667 0.307255 -0.03628475

fc2.weight f4 [64, 256]
00000000: d071 b83c a434 1fbd 4291 46be ae37 4bbe
00000010: 196c 37bd 541e e73c 919e ffbc 0b6b 673d
00000020: 4bd5 e33d c1f6 39bc 1274 963c da10 763d
00000030: becf 9e3c a03a 51bd 2a7e 4fbd ee19 ea3c
00000040: b309 1638 565a 86be 7710 573c 157b 33be
00000050: b50a bcbc a0e4 293d afaf 49bd fc55 11bd
00000060: afb2 3dbd e869 0cbd eb50 333d c5d7 60be
00000070: 34a8 b3bd 0180 a4be fd72 70be 377f 86bd
00000080: 43bc 823d af4b 223c 37af 2bbd ae25 49be
00000090: a084 883e 366a 5cbe 2fe4 233e dde4 523d
000000a0: 5f43 87be 9337 d8bc 1058 1ebd 88c7 a8bc
000000b0: 0902 833c bdc9 733d 04bc 69be 9d59 c3bd
000000c0: 9efe 8abc 99e4 ebbd 1708 69be 7461 2dbe
000000d0: a8a6 13be 08b6 233e eecc 44bd 28ad a8bd
000000e0: 088e 13bd f6af 533e 71a6 82bd a056 82bc
000000f0: 33f0 c83c 32de e73c e267 1d3c e076 e4bb
00000100: df8c 973d af47 db3d ffbb d83c 4c83 813d
00000110: 6759 5ebb 6a85 ed3d 62ff cdbc 4eb4 533d
00000120: db10 fd3d f12a 4e3d 78d8 0a3d e40d 8fbe
00000130: 02e3 08be 178f 293e e6a1 b6be d68f 17be
00000140: 72eb 67be fc89 4cbe eacc cd3b 39d5 593c
00000150: 16f2 30bd 3f75 85bd 3435 00be 0079 d2bd
00000160: d72a b03c a0af b73d 76c2 273e aafb 27be
00000170: 48f6 1dbe 4b14 89bd ea0a 383e cb36 eebd
00000180: ade5 ab3c 8b61 89be 7769 4ebd 5f37 1f3d
00000190: d2f5 0fbd 0fd4 8c3c 7767 a83e 2041 6d3d
000001a0: 5885 513e 10c6 943b d9cf 91be 63a1 60be
000001b0: 2f39 07bd e198 11be 60a5 e33c a5f1 423d
000001c0: 915d 473e 0947 4abd df10 9c3c 6557 3bbe
000001d0: 4274 c73b 3d42 4f3e 2df9 e13c f46b 68be
000001e0: 4492 813c dd6f 9c3d d691 6abd 486f 52bd
000001f0: b49c 80bd b88a 253d 53f6 293d 2492 eb3c
00000200: 10de 35bd b56e f9bc 80d4 7a3c 1b43 88bd
00000210: 0a48 253e 4da6 7dbe 2903 3fbe 3ad1 0ebc
00000220: 1a4d b0bc 837a 313d af97 03be c553 96bd
00000230: 9f51 1f3e 576e 6a3e 62fb 29be 10cb b1bb
00000240: 0c67 56bd 9fec 5cbe d67d a6bd 434a a4be
00000250: 9f0a 2ebd 3314 01bc 123d 6dbd fc13 1dbc
00000260: 2e15 8e3a 9fee f33d c536 063c 3304 41be
00000270: a56c fc3d 1165 0b3e 1d0a a83d 7499 c43c
00000280: e325 cc3d 65d6 54be 5954 0dbd dd17 2dbd
00000290: e49a 15be a8c3 4c3d 485e 86bd efa7 aabc
000002a0: 416a 42be 2932 4bbe 6d23 0d3e 343c 1a3c
000002b0: 01e3 b93c caaf 55be 3324 573e be9f 233e
000002c0: f44a e63d 9ef3 93be 1095 3abc 7c51 883b
000002d0: 0d01 28be 1863 bcbd 805b 02bd a161 1c3c
000002e0: 3353 10bd 2669 1a3d 84a3 67be 5b03 2ebe
000002f0: 86df 37bd 84db cebc 73a9 8ebe 5fc5 8a3d
00000300: 9c37 16be de4b afbc 079b 33be 47d5 27bd
00000310: 5090 9fbb 2d1a 9c3c ecdc 403d 1ee4 5bbe
00000320: 5963 89be 08a2 84be 9792 9f3d 2c4a 08be
00000330: 815f d1bd c88f df3c 9a4c 1fbe 580c ab3c
00000340: 04dc c2bd 1b3f 34be c6fe bd3d 0c36 99bd
00000350: 5aaf 993d 6003 b03c bd37 51be 3fdc 90bc
00000360: df4e a8bc 6b90 493c a15f 0bbd b0f1 30be
00000370: 9ab3 113e f8a7 45bd 694d 8bbe 78ac 073e
00000380: fd23 853d acfc 83bd 23ce edbc b914 1fbe
00000390: 64eb e03d 12bb 283e e505 87be a517 273e
000003a0: 54d9 253e 669d 2e3d 078c a83d 55b1 383d
000003b0: 48ef cd3c b388 5dbd a9c4 41bd ce05 423e
000003c0: 6c4c f43c b4dc d23c 623f e83c d048 06bd
000003d0: 7eb1 2abd 6249 10bd a104 053d 9af5 c13d
000003e0: dc7b 053c a199 0bbe 0ac4 36be 97ce 0cbd
000003f0: 173d 263e 882b 3abe 847f 84be 1041 d5bb
0.022515208 -0.03886856 -0.19391349 -0.19845459 -0.044780824 0.028212704 -0.03120354 0.05649857
0.11124667 -0.011350335 0.018365894 0.060074665 0.019386169 -0.0510813 -0.05065743 0.028576817
3.577182e-05 -0.26240796 0.013126484 -0.17527421 -0.022954324 0.0414778 -0.04923981 -0.03548239
-0.046312984 -0.034280688 0.04377834 -0.2195731 -0.087723166 -0.3212891 -0.23481365 -0.06567233
0.06383564 0.00990574 -0.041915145 -0.1964328 0.26663685 -0.21524891 0.16005014 0.051487792
-0.26418588 -0.026393687 -0.0386582 -0.020602956 0.015992181 0.059518564 -0.22825629 -0.09538577
-0.016967114 -0.11518211 -0.22756992 -0.16931707 -0.14419043 0.15987408 -0.048047 -0.08236152
-0.036024123 0.20672593 -0.063794024 -0.015910447 0.024528598 0.028304193 0.009607287 -0.006972179
0.07399916 0.10707032 0.026456831 0.06323871 -0.00339278 0.11597712 -0.02514619 0.051685624
0.123567306 0.05033392 0.033897847 -0.27940285 -0.13367847 0.1655849 -0.35670394 -0.14800963
-0.22648409 -0.19974512 0.006280531 0.013295465 -0.04319962 -0.065165035 -0.12520295 -0.10276985
0.021504803 0.08969045 0.16382775 -0.16404596 -0.1542598 -0.06693324 0.17972913 -0.11631545
0.020983541 -0.26832232 -0.050393548 0.038871165 -0.035146542 0.017190961 0.32891437 0.057923436
0.20461023 0.0045402125 -0.28478888 -0.21936564 -0.03301352 -0.14218475 0.027788818 0.04759373
0.19469287 -0.04938415 0.019051014 -0.18295057 0.006086857 0.20240112 0.027584637 -0.22697431
0.015816815 0.07638524 -0.057267986 -0.051375657 -0.06279889 0.040415496 0.04149468 0.028756209
-0.04440123 -0.030448297 0.015309453 -0.06653424 0.16140762 -0.2477047 -0.18653549 -0.008716876
-0.02152114 0.043329727 -0.12850831 -0.073401965 0.1555848 0.22893654 -0.16599801 -0.0054258183
-0.052344367 -0.21574639 -0.0812947 -0.32087907 -0.042490598 -0.007878351 -0.05791957 -0.009587284
0.0010840052 0.11910748 0.008191769 -0.18849258 0.1232541 0.13612773 0.08205054 0.023998953
0.09968164 -0.2078491 -0.03450427 -0.042259086 -0.14609867 0.04999128 -0.065609515 -0.02083203
-0.18985845 -0.19843353 0.13783045 0.009413768 0.022691252 -0.2086784 0.21009903 0.15978906
0.11244765 -0.28896803 -0.011388078 0.0041601043 -0.16406651 -0.09198588 -0.031825542 0.009544761
-0.035235595 0.037697934 -0.2262097 -0.16993468 -0.044890903 -0.025251158 -0.27863654 0.06775927
-0.14669651 -0.021398481 -0.17539607 -0.04097488 -0.0048694983 0.01905545 0.047085688 -0.21473739
-0.2683361 -0.2590487 0.07791632 -0.13309544 -0.10223294 0.02729024 -0.15556565 0.02087991
-0.09514621 -0.17602198 0.0927711 -0.07481012 0.07504149 0.021485984 -0.20431419 -0.017683147
-0.020545421 0.012302498 -0.034026746 -0.17279696 0.14228669 -0.04825589 -0.27207497 0.13249385
0.06501005 -0.06444678 -0.029028958 -0.15535249 0.10982397 0.16477612 -0.26371685 0.16317613
0.16196185 0.042630576 0.08229833 0.045090992 0.025138512 -0.054085445 -0.04730669 0.18947527
0.029821597 0.025740005 0.028350536 -0.032784283 -0.041673176 -0.035226233 0.032475118 0.09470673
0.008147206 -0.13632824 -0.1784822 -0.034376707 0.16234241 -0.18180668 -0.25878537 -0.006508

fc2.bias f4 [64]
00000000: 2297 883e 0a65 93bb 80e6 543e 16aa b43e
00000010: d16d 07be 9efc 9cbe c297 df3c a917 9bbe
00000020: d143 b9be bc7f a43e b1af 35bf d0ae 63bf
00000030: 4cea be3e bacb 3fbf dacb 56bf 2509 f4be
00000040: f3f9 dfbe 9938 113e 7ace 13be 28d6 843f
00000050: 8bd0 51be 4a8a 11bf 6d03 333e db1a a73c
00000060: 0033 d3be f87b b93e 5a71 86be d6b5 27bf
00000070: a8ed d23e 58e9 f8be a10e f7be 6845 4e3e
00000080: f28f 213e 14a3 04be a8b1 873c 3265 29bf
00000090: 496b 03bf d17c c6be 4aaa 8dbd 8fab c83e
000000a0: 198c 38be 5147 033e 4641 15bf ece7 753e
000000b0: e1cf 77bf cd0f b23e 65ae 253d 9d5e 0abe
000000c0: de45 9cbe c970 093f 28a2 eb3c a53c 14bf
000000d0: b452 de3d d735 10bf 5193 3abf c419 5ebf
000000e0: 624a 123e 8b40 65be 30d4 e7be 784d d1be
000000f0: 7b13 5abf 49a2 d2bd 9955 bfbd 2ee3 653f
0.26677805 -0.004498129 0.20791054 0.35286015 -0.13225485 -0.30661482 0.027294043 -0.3029149
-0.36184552 0.32128704 -0.7097121 -0.8893862 0.3728813 -0.7492024 -0.839048 -0.47663227
-0.43745384 0.14181747 -0.14434233 1.0377855 -0.20489709 -0.5685164 0.17481776 0.020398548
-0.41249847 0.36227393 -0.26258355 -0.65511835 0.41196942 -0.48615527 -0.48253348 0.20143664
0.15777567 -0.12952834 0.016564205 -0.66170037 -0.5133558 -0.38767102 -0.06917246 0.3919339
-0.18022193 0.12820174 -0.58302724 0.24014252 -0.96801573 0.3477768 0.04044952 -0.13512655
-0.30522054 0.5368772 0.028763846 -0.57905036 0.10855618 -0.56332153 -0.72881037 -0.86758065
0.14286187 -0.22387902 -0.45279074 -0.40879416 -0.85185975 -0.1028486 -0.09342498 0.89799774

fc3.weight f4 [32, 64]
00000000: 2f71 1fbe 7ea0 5cbe c377 97bd 05f1 3abe
00000010: 99d8 26be 10d9 bbbc c05a 27bd 2ea1 553d
00000020: 4957 d53a a775 833d 9766 2abd f1a5 29be
00000030: 0ca4 7cbb e6e6 25be a0d3 0cbe 2091 8b3d
00000040: aeb2 3c3c 7691 503e 0588 6b3e c300 f43e
00000050: 6021 733d 5b79 a23d 7df8 1d3e 97de e8be
00000060: 1306 893d 452c 7f3d df40 193e c708 09be
00000070: 9817 803d 9e0c b0be dae4 a4bd 9d76 0dbd
00000080: 2ae9 703e f203 503e 6e17 223e 50bb a3be
00000090: 1cae a3bd d189 f93d d10a 90be d08d d5bc
000000a0: 2fe2 5abe 45ff b3bd f506 f0bd bac3 efba
000000b0: 9124 d4bc dc8e e8bc f8d3 413e cf2b ec3d
000000c0: 6b3f 9a3e 0c81 ca3c cfe2 70bd a8ed fe3d
000000d0: 96b8 213d ead6 81be 7f1f b0be 6216 5d3d
000000e0: 5498 b13d aca1 733c 2496 3b3d 1cb0 9f3d
000000f0: ff11 adbe 9e62 bb3d 3e27 283d a841 b03e
00000100: ec63 233d 86c8 74be 4533 e6be 0015 7dbd
00000110: 67c9 a2be 393d f3bd 936b 883e 75ed 0c3e
00000120: 3f0a c7bd c2bc 8b3e 67e3 b23d 5934 32be
00000130: 78df 193d e1a3 693e 85df ae3e a0df 27be
00000140: 0910 813e e416 c4bd eaf5 7bbe f3f9 ec3b
00000150: 1c97 4b3d 0b87 4cbe a720 7f3d 123b 433e
00000160: 433b 8d3d 2481 993e 05c0 09be efb8 3ebe
00000170: de90 653e 898f 4dbd 9c67 943d 57d7 a0bd
00000180: 269b 513d db7b ffbe 7367 eeba 7749 523e
00000190: 4aeb 233e ddb9 923e ab0d 9bbe 8883 113e
000001a0: 50f5 35ba d39b 38be e4cc 6fbe 69cc a1be
000001b0: 748f ebbc b177 243e a9fb e0bd 531e fdbb
000001c0: 4868 35be acab 433e 486c 9e3d 14ca c0bd
000001d0: 1860 6dbe be60 ebbd 4ff7 943e edba 793e
000001e0: c6bd 033e c3ad 3a3e 586f 0cbd 7a38 bd3c
000001f0: 8e7a 523e 12ac 483b 66ff 113e a4fc 26bd
00000200: f175 bf3c 6a29 203e d7ad 54bd cf1e 893c
00000210: 567a 77bd 3fd7 78be 0dae c43d ace8 323e
00000220: 8b77 2ebe 6efd 1c3e bbc4 ff3d c612 a2be
00000230: d678 0b3d d3f8 503e 9e9c 4d3d 671b a5be
00000240: 6573 6abc b2d0 26bd 1734 e5be 79b5 723d
00000250: 6ac2 003e 98ee 91be 6a58 07bf 9a4d a63e
00000260: 7ff6 b03d ece5 76be d4e4 65be a800 adbd
00000270: 503a 883e 5ba6 023e b042 c9bc 4895 df3d
00000280: 248f 6bbd 006c 74be 13de 1c3e 6623 623d
00000290: 1349 213b 0700 25be 605f afbc 10b3 853e
000002a0: aa9e 5a3d 167a e23d b2d6 8bbe 5bab 7bbc
000002b0: 95aa 0bbd d509 88bd bf25 e7be 1dee 34be
000002c0: 5f4e f5be 4321 183f 3e9d 5d3e 823e 5fbe
000002d0: aa06 85be 8055 203c 3775 983e e65f 0bbc
000002e0: 0dbb 17be a7ac db3d 5b24 bcbd 75ef b8bc
000002f0: 99b1 2b3e 3789 053d 73d0 023e fcf4 303d
00000300: 7512 50bd cd03 463d 5f0a 3cbb 18b9 97be
00000310: 8255 9e3d 767b 70be 696e 163e 8eb3 863e
00000320: ef6b 0f3f bb9e 913d 4011 bbbd eae4 bf3d
00000330: 6d1b 813e 6ad2 2e3e 5426 85bc c3eb 813e
00000340: e82e 8d3e 3825 e33d bbfc f73e 01be 563d
00000350: c9c5 eebd b449 083d d630 873e d4cc bcbe
00000360: 3e8b f93d 8cf1 eb3d 6178 173f 2dec 6c3e
00000370: 158e 93be 8fb5 d2be 7949 9a3e 1167 573e
00000380: 0abf 70bc 4379 fbbc e19e b33d 0faf 24be
00000390: 3d63 383e 8a6f 003f 4f00 863c 42ea 083e
000003a0: 1d76 b1be dfcf 90bd f067 013e 50db d4bd
000003b0: 5fa8 dc3e 565c 89bd 31e3 d83e 4856 533e
000003c0: 3325 0d3f fd39 9dbe 11b1 13be 6765 b93e
000003d0: 848a 243e 8c46 2ebe cb4f 963c a480 e93d
000003e0: 6eb6 163e 671d e83d 9591 ae3c 7736 483e
000003f0: 7588 a53d 7a38 b53b 4656 f63d e7cd 893d
-0.1557052 -0.21545598 -0.073958896 -0.18256004 -0.16293563 -0.022930652 -0.04085803 0.052155666
0.0016276623 0.06418925 -0.041601744 -0.16567208 -0.0038549928 -0.16201362 -0.13752604 0.0681479
0.01151721 0.20367989 0.23001106 0.4765683 0.059358 0.07933303 0.15426822 -0.45482323
0.06690612 0.062298078 0.14966153 -0.13382255 0.062545 -0.34384626 -0.080514625 -0.034536947
0.23526445 0.20314005 0.1582925 -0.31978846 -0.07992193 0.121844895 -0.28133252 -0.026068598
-0.21375345 -0.08788923 -0.11720077 -0.0018292584 -0.025896342 -0.028388433 0.18928516 0.11531793
0.3012651 0.024719737 -0.05881005 0.12447673 0.039482675 -0.2535928 -0.3439903 0.053976424
0.086716324 0.014870089 0.045797482 0.07797262 -0.33802792 0.09149669 0.04105305 0.34425092
0.039890215 -0.23904619 -0.4496099 -0.061787605 -0.31794283 -0.11876912 0.26644573 0.13762458
-0.09718751 0.27292448 0.0873478 -0.17402782 0.037566632 0.22816421 0.34154907 -0.163939
0.25207546 -0.095746785 -0.24605528 0.0072319447 0.049704656 -0.1997339 0.062287 0.19065502
0.06896069 0.2998134 -0.13452156 -0.18625234 0.22418544 -0.050185714 0.072463244 -0.07853573
0.05117335 -0.49899182 -0.0018188789 0.20535837 0.16007724 0.28657427 -0.30283865 0.14210331
-0.00069411565 -0.18028192 -0.23418003 -0.31601265 -0.028754927 0.16061284 -0.109855 -0.007724562
-0.17715561 0.19108456 0.07735497 -0.09413543 -0.23181188 -0.114930615 0.2909493 0.24387713
0.12865362 0.18230347 -0.034285873 0.02309822 0.20554563 0.003062014 0.14257583 -0.04076828
0.023371669 0.15640798 -0.0519236 0.016738323 -0.060419403 -0.2430086 0.0960351 0.1747157
-0.1703779 0.15331051 0.12488695 -0.31654948 0.034050785 0.20407419 0.05019819 -0.3224747
-0.014309739 -0.04072637 -0.44766304 0.059255097 0.12574163 -0.28502345 -0.52869284 0.3248108
0.086407654 -0.24111146 -0.22450572 -0.08447391 0.2660699 0.12758772 -0.024567932 0.10917145
-0.057509556 -0.23869324 0.1531909 0.05520954 0.0024610206 -0.16113292 -0.021407783 0.26113176
0.05337397 0.11058442 -0.27312237 -0.015360679 -0.034098227 -0.066425 -0.45145985 -0.17668958
-0.47911355 0.59425753 0.21642014 -0.21801189 -0.25981647 0.00978601 0.29776928 -0.008506751
-0.14817448 0.1072629 -0.09186622 -0.02257512 0.16766967 0.03260156 0.1277483 0.043202385
-0.050798852 0.04834347 -0.0028692705 -0.29633403 0.07731153 -0.23484597 0.14690556 0.26308864
0.5602407 0.071103536 -0.091341496 0.09369834 0.25216237 0.17072454 -0.016253628 0.25375184
0.2757485 0.11091083 0.48435006 0.052427296 -0.11658818 0.033273414 0.26404446 -0.3687502
0.121847615 0.11520681 0.5916806 0.23136969 -0.28819337 -0.41154143 0.3013418 0.2103541
-0.014693985 -0.03069747 0.08770538 -0.16082405 0.18006606 0.50170195 0.016357569 0.13370612
-0.34660426 -0.07070898 0.12637305 -0.10393393 0.43097207 -0.06707065 0.42360833 0.20638382
0.55134887 -0.30708304 -0.14423014 0.36210176 0.16068465 -0.17019099 0.018348595 0.114014894
0.14718029 0.11333733 0.021309653 0.19552027 0.08082668 0.005530414 0.12028174 0.06728726

fc3.bias f4 [32]
00000000: bbcd fd3f 430d b83e 67ee 743f 0875 3dbf
00000010: 55d1 003f fdc9 97bf 5794 ebbd 7c2e b3be
00000020: 10c1 e33f f494 fa3e 0a9f 793f 5204 54bf
00000030: aa5a 82bf 76f9 88bf eb65 03be a38a 6f3e
00000040: c582 d7bf 03e0 a2bf 2559 453f a7fa ea3d
00000050: df94 d9be 32b7 6f3f 5cde ec3e 7001 8c3f
00000060: 6ff1 5bbe afa4 0340 3383 0c40 312d 13bf
00000070: eaee 183e edbc cbbe 2df9 05be 40e6 793f
1.9828409 0.35947618 0.95676273 -0.740067 0.50319415 -1.1858517 -0.11502903 -0.34996402
1.7793293 0.48941767 0.975083 -0.8281909 -1.0183918 -1.070113 -0.12831847 0.2339273
-1.6836783 -1.2724613 0.7708915 0.114735894 -0.42496392 0.9363891 0.46263397 1.0937939
-0.21478818 2.0569265 2.1955078 -0.5749083 0.14934888 -0.39792576 -0.13083334 0.9761696

fc4.weight f4 [10, 32]
00000000: ee63 a7be 55ab 613d 8bf9 ce3d b2f9 e4be
00000010: c425 253e b6db 47be 108e a93e 0020 ec3e
00000020: 775e 5cbd 2a44 e53d 1717 bbbe f151 693e
00000030: cd93 fe3d 1a8a 863e 1d80 9dbe a177 9e3e
00000040: 9bc8 e03d 4e56 81be 50ba 57be b54b 18bc
00000050: f802 66be ce8e 803d deb5 0dbf 6e1f 43bf
00000060: 5e17 8a3c ce73 913e 9ac0 73be d10f 9bbe
00000070: e435 93be 2047 d13e 121e e0bd 3fe8 9cbe
00000080: 4183 473d 7b97 7f3e f839 63be d382 ae3e
00000090: 3c5c febe c6d0 ddbd 0013 f23d 34e6 c43e
000000a0: 1a4c c8be 02f9 22be 81bb 19bd 8aab ac3e
000000b0: 35b0 03bf a14e 133d 0f06 d13d df84 f6be
000000c0: e596 3c3e 9358 db3e f13f 5bbe dc80 29be
000000d0: 6dc9 023e 1887 193d 461b 85be cd9e 35be
000000e0: bb28 7c3b 2a80 7e3c 9d7c 92be 8ebc b5be
000000f0: eded b53d bfcb 41be e81c afbe 7382 43bf
00000100: 1a5c 24bf dea8 573d 0612 6d3e 5d84 ccbe
00000110: 207a 0abf 9fe0 3f3e 084f 893e 3e9d 86be
00000120: 3335 453e 9985 abbe 9008 d83e 5932 bbbe
00000130: 7ba2 693e 6de5 3abd 33f5 a7be a660 373e
00000140: e9f9 29be 8df1 bbbe 5b94 65bd 4484 5d3e
00000150: 0a95 c8be 317e a13e 53d5 883e 0b33 8b3d
00000160: 872a 4bbb 3031 9dbd 8c78 033e e195 d8be
00000170: 0941 bcbe 49b3 d63c bc75 85be c044 82be
00000180: 70ce cb3d 9498 ddbd 1ce7 2cbf 3b9e 403e
00000190: 8146 76be 9493 3fbe 03a3 21bd e52f 04be
000001a0: e192 413e a2b4 6f3e 941e 09bf 3df3 923e
000001b0: d2d9 81bd 0997 bfbe 971a a83e 9190 8b3e
000001c0: b8b6 c63d d0d9 a3be 7a5c 703e d752 a3be
000001d0: 5536 8dbe c0bc 753e 415b e3be f757 c6be
000001e0: 3b2b 24bd 8cec d7bd 955e 1abe 611e 14bf
000001f0: df7b eebe 3f28 a4bd 60b9 bcbd 219b f2be
00000200: a619 4cbe 457d 083e b120 5bba f557 00bd
00000210: d47c cdbe 84c8 763e bcdc 4dbe cc9c 1ebe
00000220: 00fd 0b3e 3ee3 113e 74c7 4e3d bcb5 6d3b
00000230: 08e9 ed3d a975 dbba 2056 fcbd af91 2b3e
00000240: c02f 8a3e 6e7a a33e babe 733e 5ab9 c6ba
00000250: 8be8 963e 9c8a 60be 91a2 123e 2392 173e
00000260: 6bf0 83bd 5131 bdbe 9bb8 0a3e 5630 46be
00000270: 7afb 6fbe a3c2 aebe e7c6 e2bd 90e9 91bc
00000280: eef9 703e 138d f13d 529f a73e 581f 81be
00000290: 5038 233e 6a1e 31be 6ab8 d2be 73e3 05be
000002a0: e2e1 5ebd 9570 43be 6780 a23d a456 0abf
000002b0: a8fd 4dbe e432 e3bd 9ba2 0fbe f2d3 09bf
000002c0: 9e02 06bf 4315 82bd cb35 c3be dbde 843d
000002d0: fdc0 e83d a2fa e3be f684 8d3c f75b ca3d
000002e0: 8c88 fe3d 3423 353e 21bd 8abf 5c66 4f3e
000002f0: 6c72 2d3e 3585 5cbe da4b 5b3e a26a 503e
00000300: 384b f93e a9c0 493e c368 7dbc 2fc3 35bf
00000310: 4a7f 15bd 7cff 34bd 3892 2bbe 9902 f63d
00000320: 4eac 613e 5e42 8b3e 5d9c 66bd b6b3 ffbe
00000330: 24b1 b6be 1835 dcbe 1800 efbe 37af 58bc
00000340: 18d3 fbbd e148 d0bd 7fb4 1c3e da2a e7be
00000350: e312 0a3d a44e cabb bf07 fbbd 33fe 7d3e
00000360: 8f8a 4cbe 0f40 113f e9c8 f43e 9c77 01bf
00000370: c8a3 8fbf f1d2 38be 6f13 d8be 13c4 d73d
00000380: 4346 243e 9548 b4be 92be 99be fadc 8e3e
00000390: 061d 5c3e 6f60 39be f261 aebe 5b04 d03d
000003a0: c249 1fbf 9801 53be 5d97 b7bd ba89 bc3d
000003b0: d2fc dcbd 34ac f1bd d6dc 80be 46a2 7ebe
000003c0: d1f9 de3c 2300 93be 886f e2be 4aec cf3d
000003d0: 1e0f f53b 145f 01bf d13d 96be cb01 e9be
000003e0: d13e 56be 486d b5be 2e66 04bf 933b 843e
000003f0: f7b1 8c3e 127c 243d 21d7 883e 1f1d 49bd
-0.32693428 0.055095036 0.1010619 -0.44721752 0.16127688 -0.19517407 0.33116198 0.46118164
-0.053801026 0.11194642 -0.36541054 0.22785164 0.124305345 0.26277238 -0.30761805 0.30950645
0.109757625 -0.25261158 -0.21067166 -0.009295394 -0.2246207 0.06277238 -0.5535563 -0.7621983
0.016856845 0.28408664 -0.2380394 -0.30285504 -0.28752053 0.40874577 -0.109432355 -0.3064594
0.048709158 0.24960129 -0.22190082 0.34084186 -0.49679744 -0.10830836 0.1182003 0.3845688
-0.3912056 -0.15915301 -0.037532333 0.33724624 -0.51440746 0.03596366 0.10206234 -0.48148248
0.18416937 0.42841014 -0.2141111 -0.16553062 0.1277215 0.03748235 -0.2599737 -0.17736359
0.0038476426 0.015533486 -0.28610697 -0.35495418 0.08883271 -0.18925379 -0.3420174 -0.76370925
-0.64203036 0.05265128 0.23151407 -0.39944735 -0.540926 0.1873803 0.2681811 -0.2629184
0.19258575 -0.33500364 0.42194033 -0.3656185 0.22815888 -0.045628954 -0.3280426 0.17907962
-0.1659924 -0.36707726 -0.056049686 0.21632487 -0.39176208 0.3154159 0.26725253 0.06796845
-0.003100069 -0.076753974 0.12838954 -0.4230185 -0.36768368 0.026208537 -0.26066387 -0.25443077
0.09951484 -0.108201176 -0.67540145 0.1881036 -0.24050333 -0.1870864 -0.0394621 -0.12908895
0.18903686 0.2340875 -0.53562284 0.287012 -0.06340374 -0.37419918 0.32832786 0.27258733
0.097028196 -0.32002115 0.23472777 -0.3189914 -0.27580515 0.23997784 -0.4440556 -0.38738987
-0.04008029 -0.105431646 -0.15075143 -0.57858855 -0.4657888 -0.08015489 -0.09215045 -0.4738398
-0.19931659 0.13329037 -0.00083590584 -0.031333882 -0.401343 0.24099928 -0.20103735 -0.15489501
0.1367073 0.14246842 0.050483182 0.0036271652 0.11616713 -0.001674344 -0.123211145 0.16754793
0.26989555 0.31929344 0.23803225 -0.001516144 0.2947429 -0.21927875 0.14319827 0.1480184
-0.064423405 -0.36951688 0.13546984 -0.19354376 -0.23435774 -0.3413287 -0.11073094 -0.017811567
0.2353284 0.11794486 0.3273874 -0.25219226 0.1593945 -0.17296758 -0.41156322 -0.13075046
-0.054414637 -0.19085915 0.07934647 -0.54038453 -0.20116293 -0.11093691 -0.14026873 -0.5383903
-0.52347744 -0.063517116 -0.38126978 0.06487819 0.113649346 -0.44527155 0.017275315 0.09880822
0.12428388 0.1768921 -1.0838968 0.20253891 0.1693818 -0.2153519 0.21415654 0.20353177
0.486902 0.197024 -0.015466872 -0.7100095 -0.036498345 -0.04418896 -0.16754997 0.12012214
0.22038385 0.27199072 -0.056301463 -0.49941796 -0.35682023 -0.43009257 -0.4667976 -0.013225368
-0.12296122 -0.101701505 0.15303229 -0.4514988 0.033709418 -0.0061739255 -0.12257337 0.24804
-0.19974731 0.5673837 0.47809532 -0.50573134 -1.1221857 -0.18049218 -0.42202327 0.10535445
0.16042428 -0.35211626 -0.30028206 0.27902967 0.21495447 -0.18103193 -0.340591 0.10157081
-0.6222192 -0.20606077 -0.08964417 0.09205957 -0.10790409 -0.11800423 -0.25168484 -0.2486659
0.027218731 -0.28711042 -0.44225717 0.101524904 0.0074786087 -0.505357 -0.29344037 -0.4550918
-0.209224 -0.35434937 -0.51718414 0.25826702 0.27479526 0.040157385 0.2672663 -0.049100038

fc4.bias f4 [10]
00000000: 93ce b3be 8387 04bf e930 8b3e 0dc2 5a3e
00000010: 52a9 60bf 4512 ca3f 90a6 cc3f 5809 34bf
00000020: 24d4 debf 034e 8bbf
-0.3511854 -0.51769274 0.27185753 0.21363087 -0.8775836 1.5786825 1.5988331 -0.7032676
-1.740849 -1.0883182
